checkpoint_critic.pth (torch_old, 292914 bytes, 5 tensors)

fcs1.weight f4 [256, 24]
00000000: f215 bb3c 12d7 0f3d de2c f13b 4e10 d63c
00000010: d075 05be eaa0 fd3d 732e 37bc 6d2f a5bb
00000020: f1c3 b33c c3f8 bd3d 74ee 233a f660 36bd
00000030: b229 80bc b750 093e 5328 a3bc 4535 023d
00000040: 3e68 cb3c 5b75 a83d 1c24 1abd c889 833c
00000050: ff97 e13d 8530 3dbe 6fab 663d 789b 58bc
00000060: 948d b9b9 e9eb cc3c 6feb 90ba 3b31 53bd
00000070: bfd3 9cbd 37aa 913d 23e3 ab3a 3f3a 373d
00000080: cef7 be3c 9aba e1bc affb 3fbc 6709 203c
00000090: 2722 86bb b444 5e3d bca2 6f3c 9487 1dbd
000000a0: 4c8e 8bbc e6e8 913d fedc 61bc 80d9 5e3c
000000b0: 626a b73d 70d5 54bc 63c5 67bc 9e24 7cbd
000000c0: 29f2 b1bc 005f 61bd 3063 923c 3572 8ebc
000000d0: 8bfb 463d ef58 58bd ced8 a3bc 3d8e f4bc
000000e0: 9980 abbb 2f87 693d 1db7 b7bb 55d2 8cbc
000000f0: 3604 9c3d fa02 b6bd e723 3d3a 3cdf ee3b
00000100: ff16 aabc 2384 033c 861c 66bd 3e56 00bd
00000110: 9ed5 03be 7700 663d 8fbd 663d 8a8a 10bc
00000120: 9cd9 073e a989 833d 9057 6a3c a687 a73c
00000130: 3c64 65bd f61e 72be 52e2 cbbc be28 b43b
00000140: a624 8c3a f055 5e3d 4e53 a83c 2084 31bc
00000150: 6b1f 293e 2bae c7bc 9a91 cdbc facd 85bc
00000160: 7c78 493d 65d2 e8bc 65c1 0cbd 5cba d63c
00000170: 3f76 783e e420 413d 14b7 c43c e000 20bd
00000180: 2df0 f63c 6a91 3abd ae04 213c f251 c63c
00000190: d4bc 0f3d f368 733e fe6c 1cbc 523c afbc
000001a0: 9437 00bd c325 5bbc f60c 9bbc ea8d adbb
000001b0: 0c62 70bc eca3 e43d 38cd b83c fdf5 2d3b
000001c0: 0929 7d3a 36d3 fb3c 38ea 383d c070 3bbc
000001d0: 462c c2bd 3840 9dbe 84cf 37bd a5f4 c5b9
000001e0: 347d d03d 7026 e9bc 3237 923c 807b db3c
000001f0: 8cfc 833d 20e5 113e 48d9 adbc 0f38 433c
00000200: 9724 bfbb 425a 013e c33d d63b 259f c93c
00000210: f6cd 883c 5cea b7bc bc29 97bb 900c c03d
00000220: d19f 123d 4d38 9e3d 28f7 0f3c 895d 4e3c
00000230: 7043 783d 3a48 72be dd3f 2dbd 30e0 b93c
00000240: 577c b23c 3c51 90bb 7c96 e03c 6c2c 313d
00000250: 70ad 08bd 4185 2cbe de1a c5bc eb2a 0ebb
00000260: 3281 1bbd cea0 7abd d507 6a3c d835 24bd
00000270: 74ac 6dbd acb1 cd3d b2c1 3a3c 55f9 c6bc
00000280: c574 323d fe73 e3bd 9c8a babc 7154 093d
00000290: 8523 cb3d a1b1 a6bd 2927 88bb 49ca 21bd
000002a0: 0992 ab3c 3779 3abd 5331 35bd 14e5 c73c
000002b0: b032 7dbc 0a84 e0bc 1300 183d a9e3 083c
000002c0: efc3 8ebb 2323 58bd bf16 15bc b193 c5bd
000002d0: f1b4 63bd a540 a93d c5e6 babc 3843 b7bd
000002e0: 23be b43d cf4c d23c 918e 8e3c 36b8 783d
000002f0: e5c0 65bd 0c19 a63d c662 1cbd 6fe6 0b3c
00000300: 5a5b 1dbd 5997 0cbd db01 5b3d ed78 283c
00000310: 50d5 0c3d be1e ee3c edea 6abd b471 b93b
00000320: 96eb 513d ec01 933d 0cbb 813b e73a ecbc
00000330: 65f6 84bd 956c a13d ed48 79bc 509d babc
00000340: b655 623d af40 a43c b026 a83c 7762 8f3b
00000350: 7abc 323e be49 debc b55f abbc eb0c df3c
00000360: 28a0 743d 8769 2c3d 1b62 edbc 9176 a13c
00000370: 5788 063e 53ab f2bd 6cb2 063d db8a e7bc
00000380: c936 7ebc 3029 83bd 84f4 bcbc ae2c 123c
00000390: 4637 553d 2720 cf3c d95a 8a3c c854 243d
000003a0: 2885 a9bb a450 86bd 4776 35bc 5405 053d
000003b0: 9c18 19be 766f 403e cb2e a43c 8df9 81bc
000003c0: d746 bf3c 6dfe 99bd 2ab9 c53b dcf9 b63d
000003d0: f440 263d 9d06 5f3d adee 8bba 1b12 0ebb
000003e0: 30a4 643d af06 a9bd 3ba2 b83b 7130 39bc
000003f0: 698a f83c 375b c6bc e3b0 36bd 2680 cd3b
0.022837613 0.035117216 0.007360085 0.026130822 -0.13033223 0.123842075 -0.011180508 -0.005041054
0.021944018 0.09275963 0.0006253489 -0.044526063 -0.015644882 0.13409697 -0.019916689 0.031789083
0.02482998 0.08225509 -0.037632093 0.01605691 0.11015319 -0.1847554 0.056315836 -0.01322066
-0.00035391434 0.025014834 -0.0011056493 -0.05156062 -0.07657575 0.07112544 0.0013113957 0.044733282
0.023311522 -0.027554799 -0.011717721 0.009767867 -0.0040934267 0.05426474 0.014626201 -0.038459376
-0.017035626 0.071245 -0.013785599 0.013601661 0.08955838 -0.012990341 -0.014146182 -0.06155836
-0.021721916 -0.05502224 0.017869562 -0.017388443 0.048579734 -0.05281919 -0.020000841 -0.02985298
-0.005233836 0.057013687 -0.0056065456 -0.017190138 0.07617991 -0.088872865 0.00072151277 0.007289795
-0.020762919 0.008027109 -0.056179546 -0.031332247 -0.12874457 0.056152787 0.05633312 -0.008822093
0.13266605 0.06422741 0.014303103 0.020450424 -0.056003794 -0.23644623 -0.024888191 0.005498021
0.0010692074 0.054281175 0.020547535 -0.010834724 0.16515891 -0.024375042 -0.025093842 -0.016333569
0.04918717 -0.028420636 -0.034364123 0.02621191 0.24263857 0.047150508 0.02401308 -0.039063334
0.030143822 -0.045548834 0.009827776 0.024208996 0.03509219 0.23770504 -0.00954747 -0.021391068
-0.031303003 -0.013375702 -0.018927079 -0.0052964585 -0.014671814 0.11164078 0.022558793 0.0026544326
0.0009657299 0.030740362 0.045145243 -0.011440456 -0.09481101 -0.30713058 -0.044875637 -0.00037757042
0.101801306 -0.028460711 0.017848585 0.026792288 0.06444654 0.1424756 -0.021221772 0.011915221
-0.0058332193 0.12632087 0.0065381243 0.024612019 0.016699772 -0.022450618 -0.0046131294 0.09377396
0.035796944 0.07725582 0.008786954 0.012595543 0.06061119 -0.23660365 -0.042297233 0.022689909
0.021787805 -0.004404215 0.027415507 0.043255255 -0.033368528 -0.16847707 -0.024060663 -0.0021693062
-0.037965007 -0.06118851 0.014284094 -0.040090412 -0.058025792 0.10043654 0.01139872 -0.024288813
0.04356839 -0.11106108 -0.022771172 0.033527795 0.09918884 -0.08139349 -0.004155059 -0.039499555
0.020943658 -0.045525756 -0.044236492 0.024401225 -0.015453979 -0.027406711 0.037109446 0.00835506
-0.004356853 -0.052767884 -0.009099661 -0.096473105 -0.05559248 0.08264283 -0.022815118 -0.08948368
0.08825328 0.02567139 0.017401965 0.060722552 -0.05609216 0.08110246 -0.038180135 0.008538826
-0.038417198 -0.034324024 0.053468566 0.010282737 0.03438312 0.029067393 -0.05735295 0.0056593064
0.051250063 0.07178101 0.0039590653 -0.02883668 -0.064923085 0.078820385 -0.015215141 -0.02278009
0.05525752 0.020050375 0.02052626 0.0043757516 0.1745471 -0.027134772 -0.02091966 0.02722784
0.05972305 0.042092826 -0.028977444 0.019709857 0.13137947 -0.11849084 0.032885 -0.028264454
-0.0155159915 -0.0640434 -0.023065813 0.008921785 0.052054666 0.025283886 0.016889023 0.040119916
-0.005173344 -0.0655835 -0.011075563 0.032475784 -0.14950794 0.18792519 0.020041844 -0.015866065
0.023349209 -0.07519231 0.006034036 0.08934376 0.040589288 0.054449666 -0.0010675989 -0.0021678272
0.055820644 -0.08253228 0.0056345738 -0.011303053 0.030339437 -0.024213417 -0.044602286 0.00627138

fcs1.bias f4 [256]
00000000: b947 0e3e ffa3 85be ed10 323e 5bcb 90be
00000010: ad5d a23e 9c87 133e 43b3 593d 8371 99be
00000020: 809e 6fbe 3290 a2bc 682d 89be 0364 443e
00000030: 3e4e aebd 9e3c 9dbe 040d 87bc 48ef 063e
00000040: c895 6c3e e752 87be 9000 98be c4c0 d3bc
00000050: 15fc 8c3d 7184 97bd bed5 1dbe 3664 16be
00000060: d3a7 e63d 2eff 01bd 0ccc f73b 178c a53e
00000070: 1532 9fbe 5f75 9a3d 76f1 13be 832d 81be
00000080: 8d31 0abd 6ed6 6d3e 6800 67bd b75c 60be
00000090: 860d b6be 47ed fe3d b2ff 723e 8f3d f2bd
000000a0: e82c 1a3e 440c 663e a7ea 24be c3fa 55bd
000000b0: df7b 40be 444e 93bd e7d7 713b abd9 dd3d
000000c0: 4713 553d 1d2e 303c eeb9 123d 6098 513e
000000d0: c83d be3c 54db c03c 842a 133e 70a0 f53d
000000e0: 801a 123e 92f1 96be d913 98bc baab a3bd
000000f0: ae1b 74be 2c30 8a3e f2d8 74be 6492 94be
00000100: ca71 11be 5c10 e7bd be2c a2be 44d1 be3d
00000110: b337 febd 1f3f 4abe b6df 4dbe b6b5 87be
00000120: d757 8dbb ad25 6dbe 96e7 a1bc 9361 7e3c
00000130: 563a 0f3e bd4b dbbd c72e 0bbe 098b 8a3d
00000140: 8233 a43d 432a 933d 500f 29bd 733c 0abd
00000150: 1dbf e5bc 1fd2 82be 3497 86be 90ad ed3d
00000160: e8de 8c3d 2c07 d63c e2a3 b33e ff2c 033e
00000170: c967 e2bd 9199 debc 708f 023e fc61 63bd
00000180: db42 89be 70d3 8abd a463 66be dc2f bf3d
00000190: 45e1 6c3d 90f8 b43c 7468 8bbe 2292 1c3e
000001a0: c7ca 823d d228 2d3d 8b7e 1bbe bef6 bc3e
000001b0: 4c01 25bd c1db d4be 4013 7bbe f487 883c
000001c0: 17d5 3a3c 46b4 08be 30a8 80be 4393 dc3e
000001d0: c2d3 3d3b 7920 40bc af14 81be 4235 953d
000001e0: 835e 2e3d 49f6 983e 7133 c23a 8a19 7a3e
000001f0: 3943 8d3d 8bd9 02bc 387d 833e 8c8d 3bbe
00000200: e973 a63e cbcd 37be 91e3 653e 110d 33be
00000210: 08e4 ce3d 171e 47be fe5b 3c3e 1cfe f13d
00000220: d9b9 ffbd ffee 42be 8dca 013e 551c 233e
00000230: 3f80 15be 4798 b33d 8bd0 64be a6a6 f73d
00000240: 46ab c43c 3bc8 adbe 7715 3ebe 48c0 943c
00000250: 51b4 463e 078c b3bd 0ac1 0d3e 2a6c 91bd
00000260: a6d8 763e 2e7f ffbd 6205 1b3d 349d 01be
00000270: 6eee 193e dc4e 42be f3dc 70be f2d0 6f3e
00000280: 0503 bcbd f929 8f3e 22c4 46be a45b 98bd
00000290: edfa ebbd 702b 6cbe 7bc2 8b3d fa6d ddbc
000002a0: c5d3 febc 1cd6 96be 5bdf 93be 8374 963d
000002b0: ba40 bebc 8f8f 2fbe 42fc 143e b713 fcbc
000002c0: 0562 c8bd 3137 873d d806 403e 81fe 023e
000002d0: 3a43 1d3e 8824 133e e915 94bb 938a 283d
000002e0: 44e4 763e 00f5 403e 3219 a53e 9277 99bd
000002f0: 989c f23d d73c 9f3d 7724 0e3e bca5 ea3b
00000300: 00af c5bc 3e46 5cbe 3743 4d3e b980 203d
00000310: a422 1cbe 8ccf c73c 97e5 81be 4677 f5bd
00000320: bcf9 783d d96d ddbd c6c4 693e bca1 13be
00000330: 4f9d 77be 104f a63d 015b 4f3e 1aed d23c
00000340: f8d4 6c3e 973b 20be 8833 11be 194c a03d
00000350: 8997 a6bd 1585 25be 78bc adbd 8ba1 5cbd
00000360: 7066 26be 1460 15be 3b0b 913d 5ea4 c53d
00000370: 6679 253e d3d0 debd e431 183e 6003 533e
00000380: 2b86 8ebe 9db7 953d 74fe b0bd f05e 38be
00000390: 2a0e 7ebe efb2 6b3e b2e7 b6bd 8d1f 243e
000003a0: 55ea 94bd c7d8 823e 3f66 25be 6189 d1bd
000003b0: 065a 36be 01ed afbe f4f7 c43d 34e0 9c3e
000003c0: 8296 f73b feb0 18bd a2cf 2dbe 68a4 8b3d
000003d0: 211f 21be 7796 a53e 20c1 463e c2b1 403d
000003e0: 9c0a 883b 499a 043d 80fd 0dbe 9b98 933d
000003f0: bd25 453e 08b7 bc3d a232 653d 72e5 29be
0.13894548 -0.26101682 0.17389269 -0.28280148 0.31712094 0.144072 0.053149473 -0.29969415
-0.23400307 -0.019844148 -0.26792455 0.19178776 -0.08511017 -0.3071031 -0.016485699 0.13177216
0.23104012 -0.26430437 -0.2968793 -0.025848754 0.06884018 -0.07398308 -0.15413567 -0.14686665
0.11262479 -0.0317375 0.007562166 0.32333443 -0.31092897 0.07541918 -0.14447579 -0.25230035
-0.03373866 0.2322633 -0.05639687 -0.21910368 -0.35557193 0.12447601 0.23730353 -0.118281476
0.15056193 0.22465616 -0.16105138 -0.052241098 -0.18797253 -0.07192662 0.003690237 0.108325325
0.052020337 0.010753182 0.035821848 0.20468283 0.023222819 0.023542084 0.14371687 0.11993492
0.14267921 -0.2948118 -0.018564152 -0.079917386 -0.23838684 0.26989877 -0.23910883 -0.29017937
-0.14203563 -0.11282417 -0.3167476 0.09317258 -0.124129675 -0.19750641 -0.2010487 -0.26505822
-0.00431345 -0.23158903 -0.01976375 0.015526193 0.13987097 -0.10707805 -0.13592063 0.067648
0.08017637 0.07185795 -0.04127437 -0.033749055 -0.028045231 -0.25550935 -0.26287234 0.1160537
0.068784535 0.026126467 0.3508597 0.12810133 -0.11054952 -0.027172836 0.1275003 -0.055513367
-0.2680882 -0.0677861 -0.22498947 0.093353 0.05783202 0.02209118 -0.2722813 0.1529012
0.06386333 0.042275257 -0.15184991 0.36907 -0.04028444 -0.4157391 -0.24519062 0.01666639
0.011403344 -0.13350019 -0.25128317 0.43081102 0.0028965329 -0.011726492 -0.25211093 0.07285549
0.042570602 0.298754 0.0014816356 0.24423805 0.06897587 -0.007986437 0.25681472 -0.18315715
0.32510307 -0.17949598 0.22450091 -0.17485453 0.10102087 -0.19445072 0.18394467 0.11816046
-0.124866195 -0.19036482 0.12674923 0.15928777 -0.14599703 0.08769279 -0.22345178 0.120923325
0.02400745 -0.33941826 -0.18562876 0.018158093 0.19404723 -0.087669425 0.1384317 -0.07100709
0.24106082 -0.124754295 0.03784693 -0.12657624 0.1503236 -0.18975395 -0.23521785 0.2341955
-0.091802634 0.2796171 -0.19410756 -0.07439354 -0.1152247 -0.23063445 0.068242036 -0.02702998
-0.031106839 -0.29460227 -0.28881344 0.073464416 -0.023224223 -0.17144607 0.14549354 -0.03077112
-0.09784321 0.06602324 0.1875261 0.12792398 0.15357676 0.14369404 -0.0045192135 0.04114778
0.24110514 0.1884346 0.32245785 -0.07493509 0.11846274 0.07775276 0.13881098 0.0071608704
-0.024131298 -0.2151117 0.20045172 0.03918526 -0.1524759 0.024390958 -0.25370476 -0.1198564
0.06078504 -0.108119674 0.2282897 -0.14417166 -0.24181102 0.08120549 0.20249559 0.025747824
0.23128116 -0.15647732 -0.14179814 0.078270145 -0.08134372 -0.16164048 -0.08483213 -0.053864997
-0.16250014 -0.14587432 0.0708222 0.09650491 0.16159591 -0.10879674 0.14862782 0.20606756
-0.27836737 0.07310412 -0.08642283 -0.18004966 -0.2481009 0.23017476 -0.08930911 0.1602766
-0.07271258 0.25556013 -0.16152285 -0.10231281 -0.17807779 -0.34360507 0.09617606 0.30639803
0.0075557837 -0.037278168 -0.16973737 0.068184674 -0.15734531 0.32341358 0.19409609 0.047044523
0.0041516554 0.0323737 -0.13866234 0.072068416 0.19252677 0.09214598 0.05595649 -0.16591433

fc2.weight f4 [256, 258]
00000000: 7609 0f3c 9300 3c3c 0e26 043d 6942 7e3d
00000010: 2941 c3bc 3c73 dfbc 9f6b c1bc db46 32bc
00000020: 13f4 f03d 0c5b fcbd 54be 37bd da7f 133c
00000030: c21a 5e3d ee35 a8bc 906a 80bd ea0e fdbc
00000040: 4730 993c 6e46 26be 2023 76bd bd50 fc3c
00000050: 9af9 cfbc 852f cf3d f423 2cbc 530b 693d
00000060: 1cb7 24bd 3ee9 47bd 96ca 8a3b bac7 a1bc
00000070: 359a 9d3c c3e5 13be e682 b5bd 51ed 3f3d
00000080: 843f cdb8 27ac edba 9726 c9bc 3155 e73c
00000090: b154 983d 7ad7 bf3c 4813 ed3c 60eb 39bd
000000a0: 9f34 3f3d 80fc 693d d3b1 073c ccc6 9abd
000000b0: de02 a7bc 603f 423d 1476 19be 1f26 27bd
000000c0: bf61 553d 38e5 1c3c 2eb9 d3bc c7fa 80bc
000000d0: 65d1 aabd 95c5 243d d8a3 49bd 1ff7 8bbd
000000e0: ea20 663c e252 9dbb c81b 0a3d 3252 0a3d
000000f0: b0e8 f03d 6828 bf3c 060c d2bc 1895 8b3d
00000100: 3e61 223d e816 393a a734 41be d60d 113d
00000110: 1066 56bc 3fbb 37bd de91 3c3d fd3f 1bbd
00000120: 3bd1 f03b 3076 5e3d e9a7 e6bc dfa4 6dbc
00000130: 4f8a 24bb 8663 17bd f523 fb3d 66ba b63d
00000140: 2fd6 a43c 18ab bcbc 8d37 fd3c 45c2 c3bd
00000150: 24d2 37bd c7f9 9d3d 76ee a13c 4e9b 07ba
00000160: 36c2 f1bd 0fc8 4dbc b300 c53c e680 f3bd
00000170: abf7 ce3c 0359 783d 0311 9abd 626d cebc
00000180: 2ef5 92bb bc06 1dbe aa6c adbc bfe4 1bbd
00000190: e640 44bd bc97 113c 5592 383d b21e db3d
000001a0: b1f2 5dbe 77d0 d2bc e008 703d 5662 783d
000001b0: 28b1 fabd 02ec 833d 5584 22bd 22c5 ac3d
000001c0: 6e96 e73c 9f5e 39bd 3e0d 49bc 74fd 093e
000001d0: 3d61 c73b 3609 073c 6cf8 08bc 2e3d bcbd
000001e0: 01e6 dbbd 3273 89bd af83 373d 4b3a 88bd
000001f0: 5287 a0bc a423 193d 5ab8 383b 30bb a33d
00000200: 10eb d1bd ab20 39bd 5def 4e3c 39a0 0dbc
00000210: 2b57 34bc fd00 243c d5d6 85bd f599 93bd
00000220: b5ad 823c f17b b2bd d8f9 a23d ea14 18bd
00000230: a678 c9bc 2830 24bd 9c69 6cbd 00f8 bbbd
00000240: b9bf d0bc 934d a9bd e27d 903c e999 723d
00000250: eb2e 5a3d cfab e23c c0d4 e7bd bb91 463d
00000260: 26ac cfbc ef8c 25bd 4801 97bc 868e 683c
00000270: 4961 113d 30e5 a7bc 918a 783b 66e0 603c
00000280: 3957 8f3c e0f8 343d 285f 093d 11c3 96bd
00000290: 93ac f2bc 04f5 2bbd 2bf5 a7bd 51c0 553d
000002a0: a1a9 8dbd 800a 19bc f833 0bbd 2159 71bc
000002b0: 5d06 48bc b177 db3d 9b86 8ebd 8dd9 6a3d
000002c0: 3d92 4f3d a31d 00bd 48b1 813d dc91 8abd
000002d0: acab 3b3d a7ec 05be f179 cbbc 35a5 ac3c
000002e0: 7095 353d 7d45 a5bd 528d bf3c 382b aa3d
000002f0: 13e4 2fbb 570b 883c 4d25 f63c 58a0 223d
00000300: 06e3 fcbc 90ac 08bc 5e63 403d eb6f 55be
00000310: 87c6 b5bd 3c7e 5d3d 3f58 53bd da04 d13c
00000320: 060d 0f3c 5281 2f3d 4781 4dbd f5f2 82bc
00000330: d9e6 163c 2aa5 43bd ab44 063d aa91 1fbd
00000340: 6b5e 7a3c dc98 88bc 1223 8dbd 2e8c f9bd
00000350: 3b5e a7b8 ae38 97bc ede7 603d 17ca 093d
00000360: d853 0c3d d361 19bd 1d14 aabd 6930 06bc
00000370: b738 00bd 57eb 00bd c735 a03c f823 4fbe
00000380: 5b01 70bd f9c7 97bd c10e 64bd 1fcc be3c
00000390: 9b39 a53d 45e0 573c 24b6 73bd 270f a0bc
000003a0: f2f4 a1bd 59a2 8bbd ac4b 803c 944f 8abd
000003b0: e313 19bc 2ab1 403d e2bd bcba 162c a4bb
000003c0: 7dab 65bc c20a 1cbd 4d88 cfbd fda1 913d
000003d0: 5b84 ddbb fc8e 04be f6cd a0bd 1b9a 403d
000003e0: 9c69 4a3d 6b7a 7fbe 44d6 b43c 17f1 b83d
000003f0: f3e5 4abd 5919 41bd b009 653e d918 efbc
0.008730283 0.011474746 0.032262854 0.062075052 -0.023834782 -0.027276628 -0.023610888 -0.010881151
0.117653035 -0.12322053 -0.044859245 0.00900265 0.054224737 -0.020533528 -0.06270325 -0.0308909
0.018699778 -0.16237804 -0.06009209 0.030800218 -0.025387574 0.101164855 -0.010506619 0.056895565
-0.04021369 -0.04880642 0.004235576 -0.019748557 0.01923857 -0.14443116 -0.088628575 0.046857182
-9.7869925e-05 -0.001813297 -0.024554534 0.028238865 0.074380286 0.023418177 0.028939858 -0.045390487
0.046681043 0.05712557 0.008282143 -0.07557449 -0.02038711 0.04742372 -0.1498645 -0.04080784
0.05209517 0.009576134 -0.025845136 -0.01574458 -0.0834072 0.04022749 -0.04922852 -0.06834244
0.014045933 -0.00480114 0.0337179 0.033769794 0.117631316 0.023334697 -0.025640499 0.06815547
0.03964352 0.0007060603 -0.18867742 0.035413586 -0.013085857 -0.044856306 0.046037547 -0.03790282
0.007349161 0.05431193 -0.028156238 -0.01450464 -0.0025106852 -0.036960147 0.12262718 0.089222714
0.020121662 -0.023030803 0.030910278 -0.09558538 -0.04487814 0.07713657 0.019767027 -0.00051729835
-0.11804621 -0.012559905 0.024048185 -0.1188982 0.025264582 0.060631763 -0.07522776 -0.025198642
-0.004484794 -0.153346 -0.02116998 -0.038059946 -0.047913454 0.008886274 0.045061428 0.10699214
-0.2167461 -0.02573417 0.058602214 0.060640655 -0.12240821 0.06441499 -0.039676983 0.084360376
0.028269973 -0.045256253 -0.012271224 0.13475591 0.0060845898 0.008241942 -0.00836001 -0.091913566
-0.10737229 -0.06711425 0.044803318 -0.066517435 -0.019595776 0.037387505 0.0028186054 0.079946876
-0.10249913 -0.04519717 0.012630311 -0.008644157 -0.011007111 0.010010001 -0.065351166 -0.07207099
0.01595197 -0.08715046 0.0795781 -0.03712932 -0.024593662 -0.040084988 -0.057717904 -0.091781616
-0.025482045 -0.08266749 0.01763815 0.05922881 0.0532674 0.027669815 -0.11319876 0.048478823
-0.025350641 -0.040417608 -0.018433228 0.0141941365 0.03549317 -0.020495027 0.003792439 0.013725376
0.017497646 0.04418266 0.033538014 -0.07361425 -0.029623305 -0.041981712 -0.08201059 0.05218536
-0.0691712 -0.009340882 -0.033985108 -0.014730723 -0.012208548 0.10716189 -0.06959268 0.05733638
0.050676573 -0.031278264 0.06332642 -0.06766102 0.045818016 -0.13078557 -0.02483842 0.02107487
0.044331968 -0.080698945 0.023382816 0.083090246 -0.0026838824 0.01660697 0.030047083 0.039703697
-0.030869972 -0.008341923 0.046969764 -0.20843475 -0.08875757 0.054075465 -0.05159783 0.025515009
0.008731132 0.04284794 -0.050172117 -0.015984992 0.009210312 -0.047764935 0.03278033 -0.038957275
0.0152813 -0.016674452 -0.06891455 -0.1218494 -7.980732e-05 -0.018459644 0.05490868 0.033639994
0.034259647 -0.037446808 -0.083046176 -0.008190253 -0.031304087 -0.031474438 0.019556893 -0.20228565
-0.058595043 -0.07411189 -0.055678133 0.023290692 0.08067628 0.013176029 -0.059499875 -0.019538475
-0.07908048 -0.06818075 0.015661083 -0.067534596 -0.00934312 0.047043957 -0.0014399851 -0.0050101383
-0.014017937 -0.038096197 -0.10133419 0.07110975 -0.0067601628 -0.12945169 -0.07851784 0.047021966
0.049417123 -0.24949042 0.022074826 0.09030359 -0.049535703 -0.047143314 0.22366977 -0.029186653

fc2.bias f4 [256]
00000000: d371 a9bb fa2b 063e 6974 c23d 9a70 0b3e
00000010: 05ce ec3c 48a3 7abd 0fc1 e4bd 3f34 70bd
00000020: e164 7abd 4ec9 163e 738b 32bb fffa cebc
00000030: 2872 51bd f998 93bd 6d70 9fbd 41e5 ffbd
00000040: 0aaa e43c d62c 2ebd 37c6 f2bd efc0 95bb
00000050: cea1 003e ab53 083d 4312 9b3c da95 edbb
00000060: c06d 083b bcbc 2ebe ad4f 9ebc a40d 95bc
00000070: f45e 403d d696 bb3d 45e4 983d bb78 853d
00000080: 6f51 b1bc 2bd3 b5bd 1eaf f6bc f6a7 d33c
00000090: 9d32 763d b022 a03c 241a ec3c 13ac e9bd
000000a0: be40 99bd a340 e73c eb1f af3d 3320 98bd
000000b0: 6f04 103d b787 083d e08d 4bbd f4e1 293d
000000c0: 67d6 a0bd d274 c53d be25 d0bb b194 7b3d
000000d0: e282 46bc 7262 b93d f372 d0bc a349 8bbd
000000e0: 541e 433d 93ae f7bd 0f59 dfbd 7c94 d63c
000000f0: 3f58 223b d98a a23d 12aa a8bd b7c2 fbbb
00000100: a275 f4bd 304b 8ebd 7421 a0bc 35fc ce3c
00000110: 3389 063d 818a 003e 4477 fbbc af2b 94bc
00000120: 074b 5f3c c97c 093e 5cb0 eb3c 9d52 283c
00000130: 8127 4abd 576f ccbd a136 d63d c817 c33d
00000140: e2f4 2d3e 6dcf a6bd ac5c 94bd 7a36 273c
00000150: 2f21 b7bc d620 ccbd d6bc b73d e427 193c
00000160: b019 723d 3060 b53d 5385 79bd fdfe b63a
00000170: 69ab 6b3c 48d0 a3bd 7eda ddbd 010a 70bd
00000180: 2183 e8bb 508e f0bb ac04 a9bd 2806 c2bd
00000190: a060 8a3d 4cdf b33d e06f b1bd 69ff 4abd
000001a0: d427 d8bd a9b9 a2bd 34aa 09bd 733e a5bc
000001b0: 4dae c0bc 9db8 6bbd e263 db3c eeef 2b3d
000001c0: 7e1e 1cbd b45a 7d3d a524 82bd 0d23 233d
000001d0: 1407 b9bd 73d1 c5bd 1f2e f23d 847b 993c
000001e0: 41df a5bd 63be 943d bada 613d e63a 403d
000001f0: 0bb4 3a3d 7031 7bba dd88 bf3c 23c1 ca3d
00000200: eba7 dd3d e704 31be a2e1 15bd ff8f c73d
00000210: b6d7 9e3d 93d0 a2bc db06 a6bc 3e6b fbbc
00000220: 3ea6 10be 7653 98bc 54ce c2bd dc5b 1dbb
00000230: d9a7 3abe 8ae0 fd3c 0425 19be 1376 26bd
00000240: aa41 0c3e 140a 83bd 6064 983d 8288 14be
00000250: 6b78 b8bd 3ac5 8d3d 1b83 85bd 05ea 54bb
00000260: e5d0 173d f980 9fbd c52b c73c 717c 0abd
00000270: b364 d3bc fd08 f03d c072 8f3d 24db c3bd
00000280: 5fd0 abbc 8ad0 19bd 8ca6 813d 55bd 283d
00000290: f784 f13d 99b7 b63a dcc6 bf3d b4e7 8bbc
000002a0: d6cf 0fbd 9b0f aa3d 6c50 5abd 373c 383d
000002b0: 9576 09be 0e73 1bbd 0b0d 88bb ad7d 133c
000002c0: c4c7 a03d 6712 2bbd eba5 b4bc 90cb b1bc
000002d0: b49b 1bbc 94a0 eabb 3d00 2dbd 15d8 d73d
000002e0: afcb 61be 93e5 d2bd 5348 c93b d1ad afbd
000002f0: 13ae 463c b8a4 66bd 0a72 6cbb c123 0a3e
00000300: 30ea e9bc 58da f83b deca 40be 9c89 b33c
00000310: 362d 84bc ee7a 813d 1ae9 a6bd b01d cc3d
00000320: 23ee 04bd 64f8 b83d 5234 22bd 8b80 20be
00000330: efa8 b4bd e300 54bd 8819 8e3d ce99 f73d
00000340: 83b2 0e3e 2900 aa3d d53d 363d 306f c4bd
00000350: d16a 273d df14 03bd a6bd 6f3d 23ed 243e
00000360: ddd8 31be 58d9 6b3d c085 e7bd d524 81b9
00000370: a3cd b33d 69a2 a7bb 7215 23bd a5b9 d3bd
00000380: 5e75 dbbd f330 673d 3f55 81bd dac8 8cbc
00000390: 7f04 463c 3018 303d 6af9 e8bd 9188 643d
000003a0: d42e 7b3d abcb c5bc 80e7 fb3b 7e15 90bd
000003b0: ea49 653d aa99 883d 3347 e73c 3fa8 073d
000003c0: c90d dcbb 5984 373b 2e75 00be 6a26 8abc
000003d0: ac16 8c3c 84ab 49bc ebd6 b23d a5c0 aa3c
000003e0: 59f4 da3d 843a 4f3d b09b d03d a5f1 eebc
000003f0: 4532 143c b1c1 693d b12a 60bc 2eec 32bc
-0.0051710396 0.13102713 0.0949486 0.13617173 0.028906832 -0.061190873 -0.111696355 -0.058643576
-0.061131362 0.14725229 -0.0027243763 -0.025266169 -0.05113426 -0.072069116 -0.077851154 -0.124948986
0.027913112 -0.042523228 -0.11854213 -0.0045701186 0.12561724 0.033282917 0.018929606 -0.0072505297
0.002081737 -0.17064184 -0.019325102 -0.01819498 0.046965554 0.09159629 0.07465414 0.06517168
-0.021645276 -0.08878168 -0.0301128 0.025836926 0.060106862 0.01954779 0.028821059 -0.11409774
-0.07483052 0.028229063 0.0855101 -0.074280165 0.03516048 0.033332553 -0.04969585 0.04147525
-0.07853394 0.09641422 -0.0063521555 0.0614211 -0.012116166 0.0905198 -0.025445437 -0.068011545
0.047636345 -0.12093844 -0.109056585 0.02619385 0.0024771837 0.07936639 -0.08235563 -0.007683124
-0.11936499 -0.06947935 -0.019547202 0.025266746 0.032845687 0.12552835 -0.030696519 -0.018087236
0.013628728 0.13426508 0.028770618 0.010273603 -0.04935408 -0.09982174 0.104596384 0.0952602
0.16987947 -0.08145032 -0.07244238 0.010205859 -0.02235469 -0.099672005 0.089715645 0.00934789
0.05910653 0.08856237 -0.060918164 0.001396149 0.014384129 -0.07998711 -0.1083269 -0.05860329
-0.00709571 -0.0073411837 -0.08252844 -0.094738305 0.06756711 0.08782825 -0.086639166 -0.049559984
-0.105544716 -0.07945568 -0.033609584 -0.02017138 -0.023520613 -0.057549108 0.026781026 0.04197686
-0.038115017 0.06185408 -0.06354646 0.03982835 -0.09034553 -0.0965909 0.11825203 0.018735655
-0.08099223 0.07262876 0.055140235 0.04693117 0.04558186 -0.0009582257 0.023380691 0.09900119
0.108230434 -0.17287026 -0.036592133 0.09744262 0.07755987 -0.019874847 -0.02026694 -0.030690785
-0.14125916 -0.018594485 -0.0951201 -0.0024011051 -0.18228091 0.030990858 -0.14955527 -0.040639948
0.13696924 -0.063984066 0.0744102 -0.14505199 -0.09007343 0.069223836 -0.06519147 -0.003248812
0.03706445 -0.077882715 0.024312863 -0.033810083 -0.025804853 0.117204644 0.07004309 -0.09563282
-0.020973383 -0.037552394 0.063305944 0.041196186 0.11792939 0.0013940214 0.09364101 -0.017078258
-0.035110317 0.08303758 -0.053299353 0.0449793 -0.13424142 -0.03795152 -0.0041519455 0.009002131
0.07850602 -0.041765597 -0.022051772 -0.021703511 -0.009497572 -0.0071602557 -0.042236555 0.10539261
-0.22050355 -0.10297694 0.006142655 -0.08578075 0.012126463 -0.05630943 -0.0036078715 0.13490202
-0.028554052 0.007594388 -0.18827388 0.021916203 -0.01613484 0.06322275 -0.08149929 0.099666
-0.032453667 0.09031752 -0.039600678 -0.15674035 -0.08821284 -0.05175866 0.069384634 0.12089883
0.13935284 0.08300812 0.04449256 -0.0959152 0.040873352 -0.032002326 0.058530472 0.16106085
-0.17367883 0.057580322 -0.11304808 -0.0002463224 0.087794565 -0.0051157963 -0.039815374 -0.10338143
-0.107157454 0.056443166 -0.063150875 -0.017185617 0.012086033 0.042991817 -0.11375697 0.055794302
0.061323956 -0.024144968 0.007687509 -0.07035349 0.055978693 0.06669934 0.028232193 0.033119436
-0.0067155105 0.002800247 -0.125447 -0.01686402 0.017100655 -0.012308959 0.087323986 0.020843813
0.10691137 0.050592914 0.10185945 -0.02916796 0.009045188 0.057069484 -0.013682053 -0.010920567

fc3.weight f4 [1, 256]
00000000: a0a4 e53c b723 5a3c ace3 193c 5f1c ec3c
00000010: 9607 1fbd 0ac5 093d 2adc 23be 6551 92bc
00000020: 70a3 b6bc a5e0 9e3c 323e cfbc 2387 32be
00000030: d9fc 0bbd e1af 81bd bdb2 81bd 9f59 8fbd
00000040: ee77 963d 2aff a9bc d8dc 8ebc dae5 313d
00000050: 3b2e d73b d586 3b3e 1f6b 193c 32ad fbbc
00000060: dad7 a3bd cf58 a0bc f4b2 9c3d 0bdf 1abd
00000070: 45be 893d f2d8 873c 4d56 dd3b fb6e 113d
00000080: c881 b53c 64e6 ecbd 1035 a53d f4ec a33d
00000090: c659 8c3e bda2 aa3b 0e20 d7bc b90d 06bd
000000a0: f7be f2bd 9c0a 2abd a0d8 b33c fdf9 7cbd
000000b0: 7004 4abd 6a76 773c ea86 c437 7e2f 0c3d
000000c0: d018 55bd 276c 4a3c be54 03be 3bf5 183e
000000d0: 4e07 a53d 6cc8 c63d 2fd0 53bd ea54 35bd
000000e0: d4b0 883c faa6 b5bd 0b53 24bc dc5c 093d
000000f0: 20d3 93be 6b72 843c fad4 943e 6a6d 03bd
00000100: 197b 8ebd 8408 c2bc 7377 88bc a3ff a9bd
00000110: 1aa5 61be 4fa1 863c 5444 c2bd 91f5 4bbd
00000120: 804b 0abe 2cfe 0a3d 5bdd de3b bb4b a13c
00000130: de33 f4bc 9f84 02bd e63d 283c 735b 9d3d
00000140: 0edb 183d 96aa ecbd 1e01 f3bd d921 823c
00000150: dc15 73bd fea3 fdbc 0e35 593c 9f4a 393c
00000160: d65e 393a 7563 7f3c a75e d73d 5e8f 873d
00000170: 949a 60bd 166c edbd 38b7 6bbd eb0e 12bd
00000180: 72e8 e03c ef64 8d3d 7859 86bd 4dbd 0abd
00000190: 743d 953b 170c 213c 2876 f2bc 47e4 22bd
000001a0: b5bc 61bd ecdb a1bc b4a2 df3c a9be 31bd
000001b0: 4d93 933d 6c57 0c3d 95a8 92bd b781 453e
000001c0: 2a71 dbbc f0fb 623d 753c 66bc 73bf 84bd
000001d0: 076a b8bd f5e4 44bc 5d8d a13c d940 9e3d
000001e0: dd1c a7bd fb0b b63d c99b 41bd b322 913d
000001f0: f4ae 923c 58b6 fc3c 3071 863d 54fc 093d
00000200: fc98 5bbd a2fe 0fbd a5cb b3bc eadb cb3c
00000210: 5324 433d 707e 073d 6b86 b0bd 84c3 bf3c
00000220: 5863 4cbd aae4 7dbc 54ce 7cbe b0d6 cabc
00000230: f608 1bbd a282 453c 5b49 3dbd c603 94bd
00000240: 7009 503c b798 50bd d567 f13c 238b a3bc
00000250: c416 07bd 07d8 bc3c a8a1 fbbc f60c b0bc
00000260: da28 a6bd c5b0 2bbc 0f1c 8a3c d164 96bd
00000270: 7298 77be 5297 b63c f93c 7d3c 758f 9bbe
00000280: 15c6 84be 413c 90bd 4a05 bfbd 6098 be3c
00000290: c991 be3b a58a 143c a5af a13c 685a a33d
000002a0: a0dd 33bc 0cdc 603c 976f 19bd 91e6 a53d
000002b0: 2879 72bd 1d50 8cbd 1da0 643d 4365 a33c
000002c0: 3f71 023c dcbb f9bd 3c97 8e3c 3ab5 58bc
000002d0: ac8d 0d3e f030 983d fc6d 963d aa31 663c
000002e0: 9cb7 6dbe f413 b7bc 42d6 5abd 8d8b d8bd
000002f0: 60cb 6dbd 43fa e5be 3a9f 0ebd 40c4 3c3c
00000300: 5286 27bd 958f 243e ee3c 10be fbc8 173d
00000310: caed 163d 6c83 113d b5cb 35bd d386 c53b
00000320: 6c01 8d3d 4b16 4f3d 13d1 f93c 6dea 673e
00000330: 341b 94bc 6702 a5bd 2c66 73bd f33a f93d
00000340: ef39 883c 34cc a13c 4ff4 5e3d 718f cf3d
00000350: d1ef 08bd 4e0a e8bd 6a10 733c 3738 adbd
00000360: 032a 7ebd 9ad8 953d ef7c dcbc f2bd 363e
00000370: e4f7 c53c e1ad d93c 1bd6 eabd 6181 b0be
00000380: 6954 4e3e b186 5f3d e97f d6bc dca8 8bbd
00000390: e866 603c eabd 8a3d 7b1f c8bc 781a 2f3c
000003a0: 3638 493d f449 93bd c162 363d 84f8 98bd
000003b0: 4ca2 863c 725c 073c 26d8 e23c 34dd cd3c
000003c0: fc6a aebc 709c 37bd a4db c03d f5da b8bd
000003d0: 5a1e 143d 646f c53d 30aa c33c c905 d5bc
000003e0: 9612 a53c c49a 073d f3b7 193c f96d 323d
000003f0: 209f 363c bbcf 853d e33a 273d 18e5 8f3c
0.0280326 0.013314179 0.00939266 0.028822122 -0.038825594 0.033635177 -0.16001955 -0.017861078
-0.02229473 0.019394228 -0.025298212 -0.17434363 -0.03417668 -0.06332374 -0.0633292 -0.06999516
0.073470935 -0.020751555 -0.01743929 0.043432094 0.0065667904 0.18313153 0.009363919 -0.030722234
-0.08000155 -0.019573597 0.0765132 -0.037810367 0.06725744 0.01658294 0.0067546726 0.03550623
0.022156611 -0.11567381 0.080667615 0.080041796 0.27412242 0.005207388 -0.026260402 -0.03272793
-0.1185283 -0.041514024 0.02195388 -0.061761845 -0.04932064 0.015103916 2.3427845e-05 0.03422498
-0.052025616 0.012354887 -0.12825295 0.14937298 0.08058034 0.09706196 -0.05171221 -0.044270433
0.01668588 -0.08869739 -0.010029565 0.033535823 -0.28872013 0.01616784 0.29068738 -0.032086767
-0.06957073 -0.023685701 -0.01665852 -0.08300712 -0.22035637 0.01643434 -0.09485689 -0.049794737
-0.13505363 0.033933803 0.00680129 0.019689431 -0.029809888 -0.03186476 0.010268664 0.07683458
0.03731828 -0.11555974 -0.118654475 0.01588528 -0.05934702 -0.030961987 0.013257278 0.011309295
0.00070713216 0.015587677 0.105161004 0.06619142 -0.054834917 -0.115928814 -0.057547778 -0.035658758
0.027454589 0.06904017 -0.065600336 -0.033871938 0.004554445 0.009829543 -0.029597357 -0.039768483
-0.055111606 -0.019758187 0.027299263 -0.04339472 0.0720583 0.03426306 -0.07161061 0.19287764
-0.02678736 0.055416048 -0.0140525 -0.064818285 -0.09004598 -0.012017478 0.019720728 0.077272125
-0.08159802 0.08889004 -0.04726771 0.070866965 0.01790569 0.030848667 0.065645576 0.033687904
-0.053612694 -0.035154946 -0.021947691 0.024885137 0.047642063 0.033079565 -0.08619388 0.023408659
-0.04989943 -0.015496412 -0.24688083 -0.024760574 -0.037850343 0.012055071 -0.046212535 -0.07227282
0.012697563 -0.05092689 0.029468456 -0.019963806 -0.032980695 0.023052229 -0.030716732 -0.021490555
-0.081132606 -0.010479157 0.016859083 -0.07343448 -0.24179247 0.022288952 0.015456432 -0.30382887
-0.25932375 -0.070427425 -0.09327181 0.023266017 0.005815719 0.009066259 0.019737074 0.07976228
-0.0109781325 0.013724338 -0.037459936 0.08100618 -0.059197575 -0.06851218 0.05581676 0.019945746
0.00796157 -0.121940345 0.017406099 -0.0132268015 0.13823575 0.07431209 0.073451966 0.014049927
-0.23214573 -0.022348382 -0.05342699 -0.10573492 -0.05805528 -0.44917497 -0.03481982 0.011521399
-0.040899582 0.16070397 -0.14085743 0.037056904 0.036847867 0.035525724 -0.044383723 0.006028035
0.06885037 0.05055837 0.030495202 0.2264802 -0.018079378 -0.08057099 -0.05942361 0.12169447
0.016629187 0.019750692 0.05443221 0.10134781 -0.03343183 -0.113300905 0.014835456 -0.08457988
-0.062051784 0.07316704 -0.026915042 0.17845896 0.024166055 0.02657217 -0.114666186 -0.34473708
0.20149387 0.05457181 -0.02618404 -0.06819317 0.01369641 0.067745045 -0.024429074 0.010687463
0.049125873 -0.0719184 0.044527773 -0.074692756 0.016434811 0.008261787 0.027690958 0.025129892
-0.021291249 -0.044826925 0.09416893 -0.09026138 0.036161758 0.09640387 0.023884863 -0.026003735
0.020150464 0.03310658 0.009382236 0.04356191 0.011146337 0.06533762 0.040827643 0.017565295
