checkpoint_actor.pth (torch_old, 291891 bytes, 6 tensors)

fc1.weight f4 [256, 24]
0	0xbd38461e	-0.044988744
1	0x3e62dc73	0.22154407
2	0xbc5d6530	-0.0135128945
3	0x3c5a15cd	0.013310862
4	0xbe023051	-0.12713744
5	0x3df9cb6f	0.12197005
6	0x3c000012	0.007812517
7	0x3cec9b4a	0.028882641
8	0xbc80a5c5	-0.015704045
9	0x3e078d1a	0.1323742
10	0x3cd280f2	0.025696252
11	0x3d82eb9a	0.06392594
12	0xbdc01fe1	-0.093810804
13	0x3d3b820a	0.04577831
14	0xbd0b4019	-0.033996675
15	0x3d38711b	0.04502974
16	0x3cdedef6	0.027205925
17	0x3e5acd73	0.21367435
18	0xbc5f5b48	-0.013632603
19	0x3e3bbbef	0.1833341
20	0xbdd5709e	-0.10421871
21	0xbd8a0c56	-0.06740634
22	0x3c6410cd	0.013920021
23	0x3ddf76b1	0.109113105
24	0xbc6dec7e	-0.014521716
25	0x3d11c5f2	0.035589166
26	0x3cba21c0	0.022721171
27	0x3c8ec47c	0.017427675
28	0xbdd979dc	-0.10618946
29	0x3e3dfa92	0.18552616
30	0xbc9846b2	-0.018588398
31	0x3d00f554	0.031483963
32	0xbd1610b9	-0.03663704
33	0x3e10945f	0.14119099
34	0x3b830171	0.0039979746
35	0x3cf9a615	0.030474702
36	0x3ca56bc0	0.02019298
37	0xbe2213bf	-0.15827845
38	0x3bc63ef2	0.006049984
39	0xbd2d42b6	-0.04229995
40	0xbd877b0b	-0.066152655
41	0x3e836bfb	0.2566832
42	0x3ad7000e	0.0016403215
43	0x3c1a2f6e	0.009410722
44	0x3c5b3a88	0.013380654
45	0xbf499e25	-0.78756934
46	0x3a84c045	0.0010128102
47	0x3d8b41d6	0.067996666
48	0xbdd97fa8	-0.106200516
49	0x3d0f01c9	0.03491381
50	0xbd64dd6a	-0.05587522
51	0xbe08f039	-0.13372888
52	0x3d976462	0.073921934
53	0xbd005d05	-0.03133871
54	0x3cf67c45	0.030088553
55	0xbd72856e	-0.05920928
56	0x3d006379	0.031344865
57	0x3df0e384	0.11762145
58	0x3bcb5202	0.0062048445
59	0x3c9a0f46	0.018806111
60	0xbc9dfe51	-0.019286307
61	0xbca64709	-0.020297544
62	0xbcb32306	-0.021867286
63	0xbb391705	-0.002824248
64	0xbcca3681	-0.024684193
65	0xbd509056	-0.0509189
66	0xbcddea6c	-0.02708932
67	0x3ddfeb0b	0.10933503
68	0xbb40c2e5	-0.0029413041
69	0x3e91a93b	0.28449425
70	0xbc99931f	-0.01874691
71	0xbc1217b0	-0.00891678
72	0xbca089a1	-0.019596877
73	0xbe5b95e7	-0.21443902
74	0x3d21f2cb	0.039538186
75	0x3e800116	0.25000829
76	0x3da11ca7	0.07866793
77	0xbd875897	-0.06608694
78	0xbc5df496	-0.013547083
79	0x3e95e8c3	0.29279146
80	0xbbfd1302	-0.007723213
81	0xbe0b66a2	-0.1361337
82	0x3c1519a6	0.009100353
83	0x3b4bc722	0.0031094034
84	0x3c12a40b	0.008950244
85	0x3e030d8c	0.12798136
86	0x3c31a7d0	0.010843232
87	0x3d1505af	0.036382373
88	0x3ccbfe79	0.024901615
89	0xbe73eb5c	-0.23820251
90	0xbc5b8cb3	-0.0134002445
91	0xbccbb3a9	-0.024865942
92	0xbda187c3	-0.078872226
93	0x3ea2f7ae	0.3182959
94	0x3cb0bc34	0.021574117
95	0xbcbb9af9	-0.022901045
96	0xbc7a2b36	-0.015269091
97	0xbdb87014	-0.09005752
98	0x3d3aae54	0.04557641
99	0x3c3d4a43	0.01155335
100	0x3e3a5d45	0.18199642
101	0xbd2a785a	-0.041618682
102	0xbd617050	-0.05503875
103	0xbdc58b8f	-0.09645759
104	0xbb77abce	-0.0037791613
105	0xbc894fe3	-0.016761726
106	0xbc086513	-0.008324879
107	0xbdb55649	-0.08854348
108	0x3e0da4b6	0.13832363
109	0xbc919283	-0.017770058
110	0x3c49fc93	0.012328285
111	0xbdb18ce5	-0.086694516
112	0x3ddb0690	0.10694611
113	0xbd652240	-0.055940866
114	0xbdd3d98b	-0.103442274
115	0x3dd07e25	0.1018031
116	0x3d9eca25	0.077534
117	0xbd50f854	-0.051018074
118	0xbdc2e7ef	-0.09516894
119	0x3dcbc2c7	0.0994926
120	0xbd396155	-0.04525884
121	0x3e17781f	0.14791916
122	0x3b7a5a7e	0.003820091
123	0xbded8c6d	-0.1159905
124	0xbe62a37a	-0.22132674
125	0xbdaaf916	-0.083482906
126	0xbc2b822e	-0.010468049
127	0xbd8aaa2f	-0.06770741
128	0xbd51518a	-0.051103152
129	0x3e11330f	0.14179634
130	0xbc86036a	-0.01635905
131	0xbc57ce70	-0.013171777
132	0xbe08b82e	-0.13351509
133	0xbd606c95	-0.054791052
134	0x3cdb8836	0.026798349
135	0xbd4329d7	-0.047647323
136	0x3c800f6d	0.015632356
137	0x3d4e5124	0.05037035
138	0x3be0aedf	0.0068567838
139	0xbd41e96c	-0.04734175
140	0x3e05497f	0.13016318
141	0xbe5e8a7a	-0.21732512
142	0x3d67c5c1	0.056585077
143	0x3d7c06be	0.061529867
144	0x3e1066f3	0.14101772
145	0x3de84c83	0.113427185
146	0x3d90e8aa	0.07075627
147	0x3ccb8052	0.024841461
148	0x3d125f36	0.03573533
149	0x3e638f48	0.22222626
150	0xbd235bc5	-0.03988244
151	0x3d8ec348	0.06970841
152	0x3da1b1e2	0.078952566
153	0x3dca5a92	0.09880556
154	0xbca236d5	-0.019801537
155	0xbcd55e2f	-0.026045887
156	0xbd49e5b4	-0.049291328
157	0x3e69b27f	0.22821997
158	0x3d262ecb	0.04057197
159	0xbd20a140	-0.03921628
160	0x3dfa2f3c	0.122160405
161	0x3e2f79d4	0.17136317
162	0xbd18170b	-0.03713135
163	0xbd7930ce	-0.06083756
164	0xbdcfce1c	-0.10146734
165	0x3d641e3f	0.055692907
166	0xbda8720e	-0.08224879
167	0xbdd83003	-0.105560325
168	0x3db8ed56	0.09029643
169	0x3d7259d0	0.059167683
170	0x3d46c99c	0.048532113
171	0x3ca0517b	0.019570103
172	0xbc81b93e	-0.0158354
173	0x3dd513f3	0.10404196
174	0xbcbe54d2	-0.023233805
175	0xbdb58453	-0.088631295
176	0x3d0b233c	0.03396915
177	0x3c986a81	0.018605473
178	0x3bfd3030	0.0077266917
179	0x3d49dc25	0.04928221
180	0x3d6517a9	0.055930767
181	0x3e1346e8	0.14382517
182	0x3d29087b	0.041267853
183	0x3d301415	0.0429879
184	0xbcca03d7	-0.024660034
185	0x3d976c5e	0.07393716
186	0x3d81a989	0.063311644
187	0xbcd5d9b4	-0.026104786
188	0x3dfd7475	0.12375728
189	0x3dc66f6a	0.09689219
190	0x3d340364	0.043948546
191	0x3d43b07c	0.04777573
192	0xbd1edcb8	-0.038784713
193	0x3e1f9a61	0.15586235
194	0xbc3c21c8	-0.011482663
195	0xbde2be68	-0.11071473
196	0xbe2707f2	-0.16311625
197	0x3c14567a	0.009053821
198	0x3c9493ea	0.018136937
199	0xbe072e4e	-0.13201258
200	0xbda61288	-0.08109003
201	0x3db888ee	0.09010492
202	0xbc5b27bb	-0.013376172
203	0xbd29e087	-0.04147389
204	0xbd1bf159	-0.038071964
205	0xbd54df1a	-0.05197058
206	0x3d425877	0.047447648
207	0xbb48c2c8	-0.0030633677
208	0xbd528a55	-0.051401455
209	0x3cfc92e9	0.030831771
210	0xbcff5a7c	-0.031171076
211	0x3e0541c4	0.13013369
212	0x3de420cd	0.11139069
213	0xbe159f90	-0.1461165
214	0xbdb83e2c	-0.08996233
215	0x3c99d6a0	0.018779099
216	0x3d838948	0.06422669
217	0x3eaa9a9c	0.33321083
218	0x3b79f709	0.003814163
219	0xbcd44419	-0.025911378
220	0xbdbe9f89	-0.09307773
221	0xbe1c2695	-0.15249093
222	0x3c5aaa8f	0.013346328
223	0xbdd91809	-0.106002875
224	0x3d90db0b	0.07073029
225	0x3e6672c9	0.22504725
226	0xbc773b8d	-0.015089882
227	0xbe443f6f	-0.19164823
228	0xbe46ca38	-0.19413078
229	0xbd79888b	-0.060921233
230	0xbcfa2246	-0.030533921
231	0xbe1ddf6d	-0.15417261
232	0x3d7f234e	0.06228953
233	0x3e1fe92d	0.15616293
234	0xbd9d8605	-0.07691578
235	0xbd7afd0b	-0.061276477
236	0xbe12c439	-0.14332666
237	0x3ce40fad	0.027839506
238	0xbd371284	-0.044695392
239	0xbd94da4a	-0.07268198
240	0x3c6c2eab	0.014415423
241	0xbd047bf3	-0.03234477
242	0xbc0656c2	-0.008199396
243	0x3d282d6f	0.041058954
244	0xbdd63ea0	-0.104611635
245	0x3d524592	0.05133588
246	0xbcc59bb7	-0.024122102
247	0x3de15571	0.11002625
248	0xbb8745c0	-0.004128188
249	0x3c0a7f09	0.008453139
250	0x3cf82bd3	0.030294335
251	0x3dad83be	0.084723935
252	0xbcb7fdf3	-0.02245996
253	0x3c08e020	0.008354217
254	0x3d3d41c2	0.04620529
255	0x3e1c339d	0.15254064

fc1.bias f4 [256]
0	0x3e226a6e	0.15860912
1	0x3dca31e8	0.098728
2	0x3ddd6b99	0.10811538
3	0xbe184072	-0.14868334
4	0x3e06faf0	0.13181663
5	0x3df76385	0.12079529
6	0x3e25e044	0.16198832
7	0xbe7e5639	-0.24837579
8	0xbdb2065b	-0.086926185
9	0x3b0273de	0.0019905488
10	0xbe60faaf	-0.21970628
11	0xbc19bf15	-0.009383936
12	0xbe1ac28f	-0.1511328
13	0xbe448641	-0.19191839
14	0xbcbc0a46	-0.022954118
15	0x3d8ed88c	0.06974897
16	0x3e045104	0.1292153
17	0xbe604129	-0.21899857
18	0xbdf85bda	-0.12126894
19	0xbd6c8c37	-0.057750907
20	0x3dd95188	0.10611254
21	0xbd1ac19b	-0.037782293
22	0xbe20b379	-0.15693463
23	0xbd49aee3	-0.04923905
24	0x3df1dd62	0.118098035
25	0xbda6d30d	-0.081457235
26	0x3e396ed0	0.18108678
27	0x3e4babbc	0.1988973
28	0xbeb90022	-0.36132914
29	0x3d539647	0.051656988
30	0xbe7c2ccc	-0.24626464
31	0xbcc2014e	-0.023682263
32	0xbd693a15	-0.056940157
33	0x3e1e7fa9	0.15478386
34	0x3d98d723	0.07462909
35	0xbe53b699	-0.20675124
36	0xbe8021e9	-0.2502587
37	0x3e178e35	0.14800341
38	0x3e8a90d2	0.27063614
39	0xbe29f395	-0.16596825
40	0x3e1a4762	0.15066293
41	0x3e089994	0.13339835
42	0xbe516f1c	-0.20452541
43	0x3db90c96	0.09035604
44	0xbda84315	-0.0821592
45	0xbd0fd474	-0.03511472
46	0x3d3429ef	0.043985303
47	0x3e2b7517	0.16743885
48	0x3c4b692f	0.012415214
49	0x3cf7c936	0.030247312
50	0xbde083c0	-0.10962629
51	0x3e796669	0.24355473
52	0x3cf72f38	0.030173883
53	0x3d881ea7	0.066464715
54	0x3e8e928d	0.27846184
55	0x3e2154f7	0.15755068
56	0xbd193fb1	-0.037414256
57	0xbc14dc5e	-0.009085743
58	0xbd8b7d65	-0.068110265
59	0x3dc0e606	0.094188735
60	0xbd7119d1	-0.05886251
61	0x3d0aaaf0	0.033854425
62	0xbe072112	-0.13196209
63	0xbe07bf92	-0.13256672
64	0x3ce3436a	0.027742106
65	0xbdeaf7e4	-0.11473063
66	0xbec7d47e	-0.39029306
67	0x3df4054e	0.11915074
68	0xbcc1619b	-0.023606112
69	0x3de77761	0.113020666
70	0xbe45349a	-0.19258347
71	0xbe593320	-0.21210909
72	0xbdf081b0	-0.11743486
73	0xbe0f99f5	-0.14023574
74	0xbcec02fe	-0.02881002
75	0x3d4e260c	0.050329253
76	0x3d4488ee	0.04798215
77	0xbe04ed55	-0.1298116
78	0xbe4d854a	-0.20070377
79	0x3d509c5b	0.050930362
80	0xbe4ec4cf	-0.20192264
81	0x3dc25d05	0.09490398
82	0xbd0b2841	-0.033973936
83	0x3d19eac5	0.03757741
84	0x3d6bbd40	0.05755353
85	0xbe6d5f7b	-0.23180954
86	0xbe753fc4	-0.23950106
87	0x3dffd1fd	0.12491224
88	0x3e09b1c9	0.13446726
89	0xbcb9c61e	-0.022677477
90	0x3e051d8b	0.12999551
91	0x3e829b78	0.25509238
92	0xbe074c45	-0.13212688
93	0x3e1d50f5	0.15362914
94	0x3d9f45b2	0.07776965
95	0xbd1c5fb1	-0.038177196
96	0xbe621286	-0.22077379
97	0xbe22ca78	-0.15897548
98	0x3dd838f2	0.105577365
99	0xbe035dc7	-0.12828742
100	0x3dc514ac	0.096230835
101	0x3d5648fe	0.052315705
102	0xbe434060	-0.19067526
103	0x3db69b47	0.089163356
104	0xbca4c791	-0.020114692
105	0x3d90eb26	0.07076101
106	0x3d6d99b9	0.05800793
107	0x3dc5c050	0.09655821
108	0x3d212ac8	0.03934744
109	0xbdaf71b1	-0.08566607
110	0xbe49bf9d	-0.19702001
111	0xbd462601	-0.048376087
112	0x3daba2a5	0.08380631
113	0xbe2441c4	-0.16040713
114	0xbe0dae8c	-0.13836116
115	0x3e213a9e	0.15745017
116	0x3d901d65	0.070368566
117	0x3e38d86e	0.18051311
118	0xbe1496b6	-0.14510617
119	0x3e36fae1	0.1786914
120	0xbdae5537	-0.08512347
121	0x3dca96d2	0.09892048
122	0x3b22d44d	0.002484578
123	0x3e0f966d	0.14022227
124	0x39670e53	0.00022035213
125	0x3c244a3b	0.010027464
126	0x3e9aeaac	0.30257165
127	0x3d81059e	0.062998995
128	0xbad40eb4	-0.0016178698
129	0x3de163ac	0.11005339
130	0x3e046112	0.12927654
131	0xbe66808f	-0.22509979
132	0x3e500e02	0.20317844
133	0xbcabc3f2	-0.020967457
134	0x3e2405ec	0.16017884
135	0x3e207dd5	0.15673001
136	0xbe24d677	-0.16097437
137	0xbe2f0540	-0.17091846
138	0xbddfbcd1	-0.10924686
139	0x3d1d5b2f	0.038417038
140	0xbe25ca7a	-0.1619052
141	0x3e1d0cc6	0.15336904
142	0xbe1a77d9	-0.15084781
143	0x3e6b724c	0.2299282
144	0x3dbc9e28	0.092098534
145	0xbc8aa15c	-0.016922645
146	0xba67f232	-0.00088480406
147	0xbe111946	-0.14169797
148	0xbd905e8d	-0.07049284
149	0xbcb6bc21	-0.022306504
150	0x3e640af1	0.22269799
151	0xbdf6448f	-0.12024795
152	0x3e1bcd79	0.152151
153	0xbe527ac7	-0.20554648
154	0x3d76d79d	0.06026422
155	0xbe125a33	-0.14292221
156	0xbd6f4e2e	-0.058424167
157	0xbcdb6f99	-0.026786612
158	0xbe101269	-0.14069523
159	0x3e3d7cac	0.1850459
160	0x3ddc2190	0.10748589
161	0x3db2b7a2	0.087264314
162	0xbd3dc8ef	-0.046334203
163	0xbd609c81	-0.054836754
164	0xbcef015c	-0.029175453
165	0xbe6938f0	-0.22775626
166	0x3d4f9f93	0.05068929
167	0x3bfb76ff	0.0076740975
168	0xbbb7a53a	-0.0056044133
169	0xbce0bcf2	-0.027433846
170	0x3db49a3e	0.08818482
171	0x3d0a2ae6	0.033732317
172	0xbd766fd9	-0.06016526
173	0xbe91815e	-0.28419012
174	0x3e219db6	0.15782818
175	0x3e40ab90	0.18815446
176	0x3deb52ce	0.11490403
177	0xbd0256d0	-0.031821072
178	0xbd1eb7c3	-0.038749468
179	0x3c9c266b	0.019061288
180	0x3e694bab	0.22782771
181	0x3de497bb	0.11161753
182	0x3ddd1fa7	0.10797053
183	0xbe7274a8	-0.23677313
184	0x3d2d4d07	0.042309787
185	0x3e2965bc	0.16542715
186	0x3e7c1574	0.24617559
187	0xbdc96b70	-0.09834945
188	0x3d0fec05	0.035137195
189	0x3e1d16df	0.15340756
190	0x3e25226a	0.16126409
191	0xbdeed9db	-0.116626464
192	0xbe82a9f4	-0.2552029
193	0xbe2de158	-0.16980493
194	0x3bd0ba49	0.006369863
195	0xbe1d6ce9	-0.15373577
196	0xbdcb7882	-0.099350944
197	0xbe05d0ce	-0.13067934
198	0xbe346c65	-0.17619474
199	0xbe872ba3	-0.2640048
200	0x3e0182f5	0.12647612
201	0xbd49db04	-0.049281135
202	0x3e24c30c	0.1609003
203	0x3daf0824	0.085464746
204	0xbe176f07	-0.14788447
205	0xbb8ab5a4	-0.004233079
206	0x3d9ceaaf	0.0766195
207	0xbd0c715a	-0.034287788
208	0x3d857e10	0.06518185
209	0x3d27e0ee	0.040985994
210	0xbe4ec80b	-0.20193498
211	0x3e69b5ec	0.22823304
212	0x3db92388	0.0903998
213	0xbe3f8dd7	-0.18706451
214	0x39ae65d0	0.00033263722
215	0x3e27ccf1	0.16386773
216	0x3a6b2475	0.0008969971
217	0xbc788684	-0.01516879
218	0xbd01d908	-0.031701118
219	0x3d99dce6	0.07512836
220	0xbc8d321b	-0.017235806
221	0xbe090ae0	-0.13383055
222	0xbd4396ef	-0.047751363
223	0x3d9e7c0f	0.07738506
224	0x3e20c340	0.15699482
225	0xbcef5907	-0.029217256
226	0x3e4b88ad	0.19876356
227	0xbbfcd854	-0.007716218
228	0xbe47572c	-0.19466847
229	0x3d95dffb	0.073181115
230	0xbe131f15	-0.14367326
231	0x3db20778	0.08692831
232	0x3db023be	0.08600567
233	0x3d594e7b	0.05305336
234	0xbc9a1824	-0.01881034
235	0xbd15e4b2	-0.036595054
236	0xbe33e835	-0.17569049
237	0xbe5d30c0	-0.21600628
238	0xbd729617	-0.059225168
239	0x3e8f283e	0.2796039
240	0x3d608dc7	0.05482271
241	0xbc50f46d	-0.012753588
242	0x3b3d5dce	0.0028895023
243	0xbe15875e	-0.1460242
244	0xb995d540	-0.00028578378
245	0xbb861e40	-0.0040929615
246	0xbccf9d5e	-0.025343593
247	0xbbe7f1a0	-0.0070783645
248	0xbdaaac01	-0.083335884
249	0x3ce19fbe	0.027541991
250	0xbe4fd844	-0.20297343
251	0xbce9b3b3	-0.02852807
252	0x3da18460	0.07886577
253	0xbd77ea9a	-0.060526468
254	0xbd403118	-0.04692182
255	0xbd337a02	-0.043817528

fc2.weight f4 [256, 256]
0	0xbb8e9d60	-0.0043522567
1	0xbde26159	-0.11053724
2	0xbd6f769d	-0.058462728
3	0xbd4ede9e	-0.050505273
4	0xbd7103e2	-0.058841594
5	0x3dcd1300	0.100133896
6	0x3de5b948	0.1121698
7	0xbcfb0275	-0.03064082
8	0xbd5acc7d	-0.05341767
9	0xbd9a69e5	-0.07539729
10	0xbc1b4fe9	-0.009479501
11	0xbe2a4647	-0.16628371
12	0xbdaca367	-0.08429604
13	0xbc436e32	-0.011928128
14	0x3c91990b	0.017773172
15	0xbc01b11b	-0.00791576
16	0xbde3c56a	-0.11121638
17	0xbdc2caaa	-0.09511311
18	0x3c41a43a	0.01181894
19	0xbdb29f3b	-0.08721777
20	0xbd56b9a5	-0.05242314
21	0xbd56abcf	-0.052409943
22	0xbe16d19c	-0.14728397
23	0xbd390038	-0.045166224
24	0xbe3225bb	-0.17397206
25	0x3d914bcd	0.07094536
26	0xbd74276f	-0.05960792
27	0xbd1fe1cb	-0.039033692
28	0xbdb24018	-0.08703631
29	0x3e045a12	0.12924984
30	0x3dad6bd7	0.084678344
31	0xbcfe8ff0	-0.031074494
32	0x3c449ffb	0.012001033
33	0xbdc33195	-0.095309414
34	0x3d03dffa	0.032196023
35	0xbdd241ea	-0.10266478
36	0x3d878921	0.06617952
37	0x3d9726a0	0.07380414
38	0x3d855078	0.06509489
39	0xbb0dd360	-0.0021640882
40	0x3e21e554	0.15810138
41	0x3d47f9a0	0.048822045
42	0x3d6f01fa	0.058351494
43	0xbceb115f	-0.028694807
44	0x3d1bce38	0.038038462
45	0x3c6ade8d	0.014335287
46	0xbd4e2952	-0.050332375
47	0x3c807d56	0.015684765
48	0xbdac6d78	-0.08419317
49	0xbe00c5ae	-0.12575409
50	0x3e090d63	0.13384013
51	0x3d4c6a0d	0.049905825
52	0x3bc8704f	0.006116904
53	0x3d345889	0.044029746
54	0xbe102798	-0.14077604
55	0x3db724d8	0.08942574
56	0xbe092bb2	-0.13395575
57	0xbd8057de	-0.06266759
58	0xbd9f4145	-0.07776121
59	0xbcfdebf8	-0.030996308
60	0xbd32f8d8	-0.043694347
61	0xbc92cdf3	-0.01792047
62	0x3da87ebf	0.082273
63	0x3b54b99a	0.003245926
64	0x3cb1185c	0.02161806
65	0x3ce01599	0.027354049
66	0xbdbe07f4	-0.09278861
67	0xbe79e8ce	-0.24405214
68	0x3d05ac0c	0.03263478
69	0x3cf6c2ef	0.030122248
70	0x3d98fd22	0.07470156
71	0x3dbe99a9	0.09306652
72	0x3e09463f	0.13405703
73	0xbd54dec2	-0.05197025
74	0x3db21a16	0.08696382
75	0x3e11c20c	0.1423418
76	0x3c305e28	0.010764636
77	0xbdd51c18	-0.10405749
78	0xbd7cfef3	-0.061766576
79	0x3d4ea18d	0.050447036
80	0xbd90fa0f	-0.07078945
81	0x3d961bf5	0.07329551
82	0xbe01da2f	-0.12680887
83	0xbd439c6a	-0.04775659
84	0x3cdaa2ed	0.026689017
85	0x3d31cbb6	0.043407165
86	0x3e3581d3	0.17725305
87	0xbc4943e0	-0.012284249
88	0x3d620fc1	0.055190805
89	0x3da63fe1	0.08117653
90	0x3c39690a	0.011316547
91	0x3d38b54f	0.045094784
92	0x3cf08ca9	0.029363947
93	0xbb1ffb45	-0.0024411243
94	0x3dfbb197	0.12289732
95	0xbdb7e50b	-0.08979233
96	0xbce259de	-0.027630743
97	0xbd54cea1	-0.05195487
98	0xbd2c5da5	-0.042081494
99	0x3d540f8b	0.051772635
100	0xbd7fdd23	-0.06246675
101	0xbe08f589	-0.13374914
102	0xbd1e3249	-0.038622174
103	0x3ccf3019	0.02529149
104	0xbd719c9a	-0.058987238
105	0x38b9f09b	8.866304e-05
106	0xbba9c210	-0.0051806048
107	0xbdec9b46	-0.115530536
108	0x3e6f48bd	0.23367591
109	0x3df64d04	0.12026408
110	0x3d89b271	0.06723488
111	0xbdf35b38	-0.11882633
112	0x3c32ca14	0.010912437
113	0x3b902ff9	0.00440025
114	0xbc9fdabf	-0.019513486
115	0xbeb1d8c5	-0.34735695
116	0xbceeb8d7	-0.029140873
117	0xbd4d0fc2	-0.050063856
118	0xbdd60d3d	-0.10451744
119	0x3de38321	0.11108995
120	0xbcc88802	-0.024478916
121	0xbd296396	-0.04135474
122	0xbddf393f	-0.10899591
123	0xbc5ee79c	-0.013605025
124	0x3d0ff40f	0.03514486
125	0xbd0af8cf	-0.03392869
126	0xbe2d7944	-0.1694079
127	0x3d347fac	0.04406707
128	0xbd1f3949	-0.03887299
129	0x3cc28110	0.023743182
130	0xbb7603f0	-0.0037538968
131	0xbdbb9c29	-0.091606446
132	0x3d14646a	0.036228575
133	0xbda4f251	-0.08054031
134	0xbd161464	-0.03664054
135	0xbe7d9297	-0.24762951
136	0x3d015de7	0.031583693
137	0x3d558eda	0.052138187
138	0x3daedcc7	0.08538204
139	0x3cfdfd04	0.031004436
140	0x3cac6f4f	0.02104917
141	0xbd18745e	-0.03722035
142	0x3e55d605	0.20882423
143	0xbd9494cb	-0.072549425
144	0x3dbe467a	0.09290786
145	0x3ae49d31	0.0017441866
146	0x3e153075	0.14569266
147	0xbbf36dbb	-0.0074288524
148	0x3d123f14	0.035704687
149	0xbbfea5a7	-0.007771212
150	0xbd6dc993	-0.058053564
151	0x3d99ac4f	0.075035684
152	0x3da84896	0.0821697
153	0x3b779e2f	0.0037783494
154	0xbc223278	-0.009899728
155	0x3cc34ee0	0.023841321
156	0xbd647b73	-0.055781793
157	0x3d1c7714	0.0381995
158	0x3dd50971	0.104021914
159	0xbc55cf0d	-0.013049853
160	0x3e559297	0.20856701
161	0x3dedafa0	0.116057634
162	0xbd242f77	-0.04008433
163	0x3dbffb3f	0.09374093
164	0xbe2c117a	-0.16803542
165	0x3c92ec8b	0.017935058
166	0xbcc144d3	-0.023592388
167	0x3d2b1fa6	0.04177823
168	0x3cd692d0	0.026193053
169	0xbd9c4949	-0.076311655
170	0xbd96ee0f	-0.07369625
171	0xbd81ccd6	-0.063378975
172	0xbcc5c871	-0.02414343
173	0xbd0611f6	-0.032731973
174	0x3bef4e63	0.0073030456
175	0xbda83c66	-0.08214645
176	0xbdc566d4	-0.096387535
177	0x3d8e2c7b	0.06942078
178	0x3d76b555	0.060231525
179	0x3d2af5b9	0.041738246
180	0xbc10b1a1	-0.0088314125
181	0xbca687ab	-0.020328363
182	0xbc07f7af	-0.008298798
183	0xbdfd82ed	-0.12378488
184	0x3d44d31f	0.048052903
185	0x3cf17a28	0.029477194
186	0x3d4c995a	0.049950935
187	0x3dbe8a8a	0.09303768
188	0xbd905935	-0.07048265
189	0x3d97ad61	0.07406116
190	0xbd110e94	-0.035414293
191	0x3bde2b61	0.0067800735
192	0xbd500784	-0.050788417
193	0xbde0118b	-0.10940846
194	0xbc4ee025	-0.012626682
195	0xbda1e446	-0.07904868
196	0xbc1209e6	-0.008913493
197	0xbda5a424	-0.08087948
198	0xbcf9cce3	-0.030493205
199	0xbde87dfe	-0.11352156
200	0xbd57c7aa	-0.05268065
201	0xbd2f5f1f	-0.042815324
202	0x3d3d4f67	0.046218302
203	0xbe3b2bdb	-0.18278448
204	0xbd63840f	-0.055545863
205	0x3d56a001	0.052398685
206	0x3e18a850	0.14907956
207	0x3da7f480	0.082009315
208	0x3d754855	0.059883434
209	0x3d726b57	0.0591844
210	0xbd37d0af	-0.04487675
211	0x3b0400f6	0.0020142174
212	0xbe3f8df4	-0.18706495
213	0xbe22a03b	-0.15881436
214	0xbd87aadf	-0.06624388
215	0xbb152bab	-0.0022761624
216	0xbb0df116	-0.002165859
217	0x3dbe2ad9	0.09285516
218	0x3c608363	0.0137032
219	0xbdd527a9	-0.10407955
220	0xbc8f8486	-0.017519247
221	0xbd8e416c	-0.06946072
222	0x3d9dbb8d	0.07701788
223	0x3d8ae435	0.06781808
224	0xbd0819b5	-0.03322764
225	0xbce3fa85	-0.027829418
226	0xbd1c4271	-0.0381493
227	0x3d46e15f	0.048554774
228	0xbc42856d	-0.0118726315
229	0x3d8e5a2e	0.06950794
230	0xbd5d4ab1	-0.05402631
231	0x3d3e8658	0.04651484
232	0x3dd7a014	0.10528579
233	0xbe0bd441	-0.13655187
234	0x3c51fc2f	0.012816473
235	0x3dac916d	0.08426175
236	0xbd144352	-0.036197014
237	0x3c8ef81c	0.017452292
238	0x3c9c51e9	0.019082027
239	0x3d42e20e	0.047578864
240	0xbd26ba41	-0.04070497
241	0x3cc398a2	0.023876492
242	0xbdb888f1	-0.090104945
243	0xbc4ea5b4	-0.012612749
244	0xbc800755	-0.015628496
245	0xbb87d068	-0.004144717
246	0x3e240531	0.16017605
247	0x3d49b3fe	0.04924392
248	0x3d929800	0.07157898
249	0x3d5fc252	0.054628678
250	0xbd380265	-0.04492416
251	0x3c5aa0bf	0.013343989
252	0x3e0f5031	0.13995434
253	0xbc81b1c8	-0.015831843
254	0x3c5efc20	0.013609916
255	0xbc48ddc3	-0.012259903

fc2.bias f4 [256]
0	0x3dd3a85c	0.103348464
1	0xbc54c626	-0.012986695
2	0x3d2df3fb	0.042469006
3	0xbd9b62b2	-0.07587184
4	0x3c4cdcff	0.012503861
5	0xbdbd48a5	-0.092423715
6	0xbd005bb8	-0.03133747
7	0x3dbed59f	0.09318089
8	0xbcb6536a	-0.022256572
9	0x3d271180	0.040788174
10	0xbbbce811	-0.005764969
11	0x3cd1e783	0.025623089
12	0x3d19c73b	0.037543517
13	0x3dfcad4a	0.1233774
14	0x3caba98d	0.020954872
15	0x3de593f7	0.11209863
16	0xbb664a44	-0.003513948
17	0x3d7a9f0a	0.061186828
18	0x3e082fe5	0.1329952
19	0x3c902651	0.017596396
20	0xbc37f56e	-0.011227949
21	0x3dcd28ca	0.100175455
22	0x3c89df47	0.0168301
23	0x3d3fdfdf	0.04684436
24	0x3d1b9650	0.037985146
25	0x3d286003	0.04110719
26	0x3cfba421	0.030717911
27	0x3d3cdac6	0.046107076
28	0xbcd3bed8	-0.025847837
29	0xbd0e48f3	-0.03473754
30	0xbac14391	-0.0014744868
31	0x3da7c0b3	0.08191051
32	0x3c9e0aff	0.019292353
33	0x3cc2cebd	0.023780221
34	0x3d54bb8d	0.051936675
35	0x3bd143ff	0.0063862796
36	0x3d4c4a1f	0.049875375
37	0xbd49977f	-0.049216744
38	0x3d6afb77	0.05736872
39	0x3da01985	0.078173675
40	0x3d9c2ad4	0.07625356
41	0x3a1c4fc4	0.0005962814
42	0x3de37318	0.11105937
43	0xbdb0e143	-0.08636715
44	0x3d984324	0.07434681
45	0xbcfe0982	-0.031010393
46	0xbde61371	-0.11234177
47	0xbd043b7a	-0.032283284
48	0xbdb5d661	-0.0887878
49	0xbb1e3f26	-0.0024146526
50	0x3b555535	0.0032552008
51	0x3bd76427	0.0065732184
52	0xbc946821	-0.018116059
53	0xbd6c30fa	-0.057663895
54	0x3cc34e93	0.023841178
55	0x3ce08446	0.027406823
56	0xbd8d9724	-0.069135934
57	0x3d8c5e6d	0.06853948
58	0xbe1636e6	-0.1466938
59	0x3d92e5a5	0.071727075
60	0x3d00067b	0.03125618
61	0x3d7fd0a8	0.06245485
62	0xba2bb1eb	-0.0006549644
63	0x3c368f71	0.0111425975
64	0x3d494325	0.0491363
65	0xbc652bd7	-0.013987503
66	0x3d5ced90	0.053937495
67	0x3b9fcc5b	0.004876656
68	0x3d6931b0	0.05693215
69	0x3d88a313	0.06671729
70	0x3d2d852b	0.042363327
71	0xbd8afd77	-0.06786626
72	0x3c9e7579	0.019343125
73	0x3d1f55fd	0.038900364
74	0x3d89d628	0.067303
75	0xbccbfc30	-0.024900526
76	0x3bb678ff	0.005568623
77	0x3d9cc328	0.076544106
78	0xbd1daafe	-0.03849315
79	0x3dabd87e	0.08390902
80	0xbd119d6a	-0.035550512
81	0x3d581c90	0.052761614
82	0x3cb20ca8	0.02173455
83	0x3ce87e75	0.028380612
84	0x3d8c7fd3	0.06860318
85	0x3d548c37	0.05189153
86	0x3d71fa05	0.059076328
87	0x3d5cec69	0.053936396
88	0x3bfad88b	0.0076552085
89	0xbd089dbd	-0.033353556
90	0x3d818689	0.06324489
91	0xbcdbec71	-0.026846142
92	0x3dc8f1fd	0.098117806
93	0xbdd75420	-0.105140924
94	0x3ccc724d	0.024956847
95	0x3cba5279	0.022744404
96	0x3daab338	0.083349645
97	0xba3e5536	-0.0007260622
98	0x3dd4f49d	0.10398219
99	0x3daf2d36	0.08553545
100	0xbd3249a5	-0.043527264
101	0xbbfd3333	-0.0077270507
102	0x3deed7a4	0.11662224
103	0x3d140e2c	0.036146328
104	0xbc5e31f1	-0.013561712
105	0xbc100c5c	-0.008792009
106	0x3d09dc80	0.03365755
107	0x3d8b9631	0.06815756
108	0x3b74fc78	0.0037381928
109	0xbc0b205c	-0.008491602
110	0xbd502459	-0.050815914
111	0x3db5b486	0.08872323
112	0x3d5dd14f	0.05415469
113	0x3d423df5	0.047422368
114	0xbc7f4931	-0.015581415
115	0x3b90fb03	0.004424454
116	0xbbb6e56f	-0.00558155
117	0x3e1ed8a4	0.1551233
118	0x3e00a21e	0.12561843
119	0x3d84f1e5	0.0649145
120	0xbd23b21a	-0.039964773
121	0x3d1870fb	0.03721712
122	0xbd9716c2	-0.073773876
123	0x3d7f0d4b	0.062268537
124	0xbdc4c4cf	-0.09607851
125	0x3d67a83b	0.05655692
126	0xbd89b1c4	-0.06723359
127	0x3c998407	0.018739713
128	0xbda09390	-0.07840645
129	0xbae2c9ff	-0.0017302631
130	0xbd302a7a	-0.04300926
131	0x3d78f3ba	0.06077931
132	0xbd0074f3	-0.03136153
133	0x3d8747b6	0.06605475
134	0x3d25f7e5	0.040519614
135	0xbd15df15	-0.0365897
136	0x3de19401	0.11014558
137	0x3cd76fef	0.026298491
138	0xbd2aa4eb	-0.041661184
139	0x3db49f98	0.088195026
140	0x3dc31dde	0.09527181
141	0x3df9b6a6	0.121930405
142	0xbccea21a	-0.02522378
143	0xbd3be6fc	-0.04587458
144	0x3d9cc78a	0.076552466
145	0x3bd438c5	0.006476494
146	0xbd94ca73	-0.072651766
147	0x3ccc55df	0.02494329
148	0xbbbe441b	-0.0058064586
149	0x3d5e3758	0.054252
150	0x3cd14c83	0.025549179
151	0x3d994871	0.0748452
152	0x3d073dcc	0.03301792
153	0xbd4568b3	-0.048195552
154	0xbc73f8cc	-0.014890861
155	0x3dfe5801	0.12419129
156	0x3d31de68	0.043424994
157	0x3c616f76	0.0137594845
158	0x3d4aa69b	0.049475294
159	0xbd688738	-0.05676958
160	0xbe01b669	-0.1266724
161	0x3d5e43c6	0.054263853
162	0x3cd84d9a	0.02640419
163	0x3dd21c89	0.10259349
164	0x3da8b06e	0.08236776
165	0x3d124e6b	0.035719316
166	0x3d73d706	0.059531234
167	0xbd1b7bb7	-0.03795978
168	0x3c7142ea	0.014725426
169	0xbbb66a5a	-0.0055668773
170	0x3c1bbd7d	0.009505627
171	0x3c362d70	0.011119232
172	0x3d47cd6d	0.048779894
173	0x3c363da2	0.011123093
174	0x3d7f70a1	0.06236327
175	0xbd23d527	-0.0399982
176	0xbe4fb88f	-0.20285247
177	0x3dde6e30	0.1086086
178	0x3aba89b3	0.0014231711
179	0xbd11d25f	-0.035601016
180	0x3dae1914	0.08500877
181	0x3d92b119	0.07162685
182	0x3d1e36a8	0.038626343
183	0x3bd9b343	0.006643684
184	0x3d776972	0.060403295
185	0xbd4976b4	-0.04918547
186	0x3d01aba1	0.03165782
187	0xbc9b4c9a	-0.018957425
188	0x3c7c5682	0.015401484
189	0xbc80afae	-0.01570877
190	0x3daa9e33	0.08330955
191	0x3cdd2a6f	0.026997773
192	0x3d26f3f9	0.040760014
193	0xbc81c2dc	-0.015839987
194	0x3cac9fd6	0.02107231
195	0x3d2b2f54	0.041793182
196	0xbbe476a6	-0.006972152
197	0xbc56664e	-0.013085915
198	0x3ce39ace	0.027783778
199	0x3d492e0d	0.049116183
200	0x3d175f9a	0.036956407
201	0xbca93b82	-0.020658258
202	0x3d14089b	0.03614102
203	0xbd10c1dd	-0.035341132
204	0x3c9c4ef7	0.019080622
205	0x3d1598f1	0.03652281
206	0x3d496ee9	0.049178038
207	0xbcf8bfe4	-0.030364938
208	0x3d592426	0.05301299
209	0x3d4c5399	0.049884412
210	0x3ca77af6	0.020444375
211	0xba15f0a1	-0.00057197554
212	0x3dca7484	0.09885505
213	0x3d006158	0.031342834
214	0x3d469be2	0.048488505
215	0xbddb9ca1	-0.10723234
216	0xbc4c8d64	-0.012484882
217	0xbe0b29a5	-0.13590105
218	0xbc5ba5fe	-0.013406275
219	0x3dbe57d7	0.09294098
220	0xbcf43669	-0.029811101
221	0x3d8d754d	0.06907139
222	0x3d4723ed	0.048618246
223	0x3c887b31	0.016660305
224	0x3cdf3bdf	0.027250228
225	0x3d5d14f3	0.053975057
226	0x3d7521a6	0.059846543
227	0x3d9eff58	0.07763547
228	0xbd561948	-0.052270204
229	0x3ccf03a0	0.025270283
230	0xbdcd9cfb	-0.10039707
231	0x3ce4bd0e	0.02792218
232	0x3dd14ca3	0.102196954
233	0xbd8e02e5	-0.06934146
234	0x3c8e2e32	0.017356012
235	0x3d2da008	0.042388946
236	0x3c167ff1	0.009185777
237	0x3dba1896	0.09086721
238	0x3d85c5b8	0.065318525
239	0x3d4c9c4e	0.04995375
240	0xbd45734d	-0.048205663
241	0x3ce7e818	0.028308913
242	0x3cedd396	0.029031556
243	0x3d5e1c67	0.054226305
244	0x3d0f2c9e	0.03495466
245	0x3d41a44a	0.04727582
246	0x3c9fd5cd	0.019511128
247	0xbd6000fd	-0.054688442
248	0xbbf79665	-0.00755577
249	0x3b30377e	0.0026888545
250	0xbda19028	-0.07888824
251	0xbcd139e6	-0.025540303
252	0xbca467f4	-0.0200691
253	0xbc4f84b9	-0.012665921
254	0x3d09ca49	0.03364018
255	0xbd12e131	-0.03585929

fc3.weight f4 [2, 256]
0	0xbe1a64b9	-0.15077485
1	0x3dfc315c	0.12314102
2	0xbda3198d	-0.07963858
3	0x3df61c1d	0.12017081
4	0x3d603944	0.054742113
5	0x3eae94ff	0.3409805
6	0x3cff5c42	0.031171922
7	0xbc8e6f65	-0.017387101
8	0xbd249b4e	-0.040187173
9	0xbd44f275	-0.048082788
10	0x3d011656	0.03151544
11	0x3d64b474	0.055836156
12	0xbbcd4e69	-0.0062654507
13	0x3dbfe7a8	0.09370357
14	0xbda96ff8	-0.082733095
15	0x3df747e5	0.1207426
16	0x3e0c1471	0.13679673
17	0xbd85fcbd	-0.065423466
18	0xbdc9114c	-0.09817752
19	0x3df50aeb	0.11964973
20	0x3ce8b583	0.028406864
21	0x3de59310	0.112096906
22	0x3df0b97a	0.11754127
23	0xbb855261	-0.004068658
24	0xbe2e4625	-0.17018946
25	0x3e913428	0.28360105
26	0x3e915150	0.2838235
27	0xbc955b63	-0.018232053
28	0x3d38ab67	0.045085337
29	0xbc7be783	-0.015375021
30	0x3c80cff7	0.015724165
31	0xbd17d976	-0.03707262
32	0xbd0e3dbc	-0.034726843
33	0xbdb0946f	-0.086220615
34	0x3cd3e648	0.025866643
35	0x3e26a7b6	0.16274914
36	0x3d9dd2d0	0.07706225
37	0xbbd97e25	-0.006637352
38	0x3d300e8b	0.04298262
39	0xbe11628e	-0.14197752
40	0x3df0869b	0.11744424
41	0xbba2ba40	-0.0049660504
42	0x3ccd8b10	0.025090724
43	0xbdb50d2b	-0.08840402
44	0xbc3c18e7	-0.011480547
45	0x3e2c505b	0.16827528
46	0x3eed7248	0.46376252
47	0xbc2f1166	-0.0106853
48	0x3ee12b94	0.4397856
49	0x3d1b81a6	0.03796544
50	0xbb98862d	-0.004654667
51	0xbbfb97a1	-0.0076779877
52	0x3d84a3c1	0.06476546
53	0x3cae7995	0.02129821
54	0xbcd0d14a	-0.025490422
55	0x3d3dfc9e	0.046383493
56	0x3da48ac0	0.08034277
57	0x3c1da386	0.009621507
58	0xbc6d29af	-0.01447527
59	0xbbd8ef65	-0.006620335
60	0x3d050c51	0.03248245
61	0xbdec9b94	-0.11553112
62	0xbca1b2e1	-0.019738616
63	0x3d9c50f1	0.07632626
64	0xbca3462e	-0.019930925
65	0x3c1f0e19	0.009707951
66	0x3db621a5	0.08893136
67	0x3e86eb22	0.26351267
68	0x3c3b4456	0.011429867
69	0xbe7db8d6	-0.2477754
70	0xbdb91dbb	-0.09038874
71	0x3e4e39ef	0.20139287
72	0xbb1dcac0	-0.0024077147
73	0x3f370fbd	0.7150839
74	0x3e051941	0.12997915
75	0x3e4a9c76	0.19786248
76	0x3d68553e	0.05672192
77	0xbd72d1f4	-0.05928226
78	0x3df158c2	0.11784507
79	0x3ca53f7d	0.020171875
80	0xbc0966d2	-0.008386331
81	0xbe40edb4	-0.18840677
82	0xbef5c0df	-0.4799871
83	0xbc5b0566	-0.013367986
84	0x3d6e52c1	0.05818439
85	0xbe4fd585	-0.20296295
86	0x3e10ef94	0.14153892
87	0xbd794da7	-0.06086507
88	0xbcdf2e67	-0.027243806
89	0xbc00adfe	-0.007853983
90	0xbe072127	-0.1319624
91	0x3da0c6be	0.07850407
92	0x3e2c5ef9	0.16833104
93	0x3cb39bfb	0.021924963
94	0xbce056e5	-0.027385185
95	0x3dad0ec2	0.084500805
96	0xbc91f58a	-0.017817277
97	0xbe3e2a6c	-0.1857087
98	0xbc99083e	-0.018680688
99	0xbe41a9e1	-0.1891246
100	0xbb4a3516	-0.0030854396
101	0xbc9fb016	-0.019493144
102	0xbd54cd03	-0.051953327
103	0xbd053250	-0.032518685
104	0x3e0e07b3	0.13870125
105	0xbdf008d5	-0.117204346
106	0x3e157af7	0.14597689
107	0xbe198f1e	-0.14996001
108	0x3df292be	0.11844395
109	0xbdac9c66	-0.08428268
110	0xbd51a1f6	-0.05117985
111	0x3c835cd9	0.016035484
112	0x3e2d37b4	0.1691578
113	0x3e504ca8	0.20341742
114	0xbc347dad	-0.011016292
115	0xbc45be2e	-0.012069268
116	0x3d790df2	0.060804315
117	0xbded9e2e	-0.11602436
118	0xbf0d66e8	-0.5523515
119	0xbe1f820d	-0.15576954
120	0x3e033ed6	0.12816939
121	0xbe6ed2f0	-0.23322654
122	0x3d3b4dc1	0.04572845
123	0xbca81b1b	-0.020520737
124	0x3e0097cd	0.12557907
125	0x3d93de98	0.07220191
126	0x3db52ee7	0.088468365
127	0xbc02ba51	-0.007978992
128	0x3d175ca4	0.036953583
129	0xbc857a88	-0.016293779
130	0xbdbb56c8	-0.091474116
131	0xbc0be54c	-0.008538555
132	0x3e1c9530	0.15291286
133	0x3c877aba	0.016538013
134	0xbd17a4e4	-0.037022486
135	0xbd38ea36	-0.045145236
136	0xbe0a1a63	-0.13486628
137	0xbd5897ba	-0.052879073
138	0x3eff6990	0.49885225
139	0xbc59c1f8	-0.013290875
140	0xbdd8acbb	-0.10579821
141	0xbdad37af	-0.084578864
142	0x3c20cad4	0.009813983
143	0x3cd7c722	0.026340071
144	0x3b8ef4da	0.0043626847
145	0x3e4509e4	0.19242054
146	0xbdb7c2dd	-0.08972714
147	0xbcc3d0cf	-0.023903279
148	0x3c2de59d	0.010613826
149	0x3f2fee59	0.68723065
150	0xbdb13d16	-0.08654229
151	0xbe26ade0	-0.16277266
152	0x3dbf0b27	0.09328299
153	0xbd23549d	-0.039875615
154	0xbf0b41e8	-0.5439744
155	0xbdbea3c5	-0.0930858
156	0x3de7e102	0.11322214
157	0x3dae4798	0.08509749
158	0x3db0cb79	0.08632559
159	0x3e946997	0.2898681
160	0x3e92a3a4	0.28640473
161	0x3da99664	0.08280638
162	0x3c957e4f	0.018248705
163	0xbb9b8e34	-0.0047471765
164	0xbb9d0e6e	-0.00479298
165	0xbc8df48d	-0.017328525
166	0x3e4fbfb5	0.20287974
167	0xbdcffdae	-0.101558074
168	0x3e32acb0	0.17448688
169	0xbe0def76	-0.13860878
170	0xbdd7923f	-0.10525941
171	0x3c4a7637	0.012357286
172	0x3d5537f9	0.052055333
173	0x3ecae1d5	0.3962542
174	0xbdbb133c	-0.09134528
175	0xbc104663	-0.008805844
176	0x3f75da8d	0.9603661
177	0xbd006ba2	-0.031352647
178	0xbce2d50f	-0.027689485
179	0x3e06fae0	0.13181639
180	0x3d69c659	0.057073925
181	0xbe7ddc9f	-0.24791192
182	0x3daa3f0b	0.08312806
183	0x3d1a63e6	0.037692927
184	0xbd09cff7	-0.033645596
185	0xbd9ce020	-0.07659936
186	0xbd9e5853	-0.0773169
187	0x3dad4ae7	0.08461552
188	0x3df3a527	0.11896735
189	0x3e5577fb	0.2084655
190	0x3e27af06	0.1637536
191	0xbead30e2	-0.33826357
192	0x3c618fa2	0.013767155
193	0x3e884022	0.2661143
194	0xbd016aad	-0.031595875
195	0xbd71318b	-0.05888514
196	0xbbd192fb	-0.0063956953
197	0xbdbbd921	-0.091722734
198	0x3bb866da	0.0056274952
199	0xbb99c338	-0.0046924613
200	0xbc9318f1	-0.017956229
201	0x3d9e3ab4	0.077260405
202	0xbdb4b41f	-0.08823418
203	0x3e311424	0.1729284
204	0x3dde78b6	0.108628675
205	0xbd8c256d	-0.06843076
206	0xbdcda39f	-0.10040974
207	0x3d42df2c	0.047576115
208	0xbd43326d	-0.04765551
209	0xbb361f3d	-0.0027789616
210	0xbe4fab71	-0.20280243
211	0x3dd853f9	0.105628915
212	0x3e9fa7fc	0.3118285
213	0xbc0cf1ba	-0.008602554
214	0x3e960a41	0.29304698
215	0x3d167fed	0.036743093
216	0xbdb22592	-0.08698572
217	0x3e483bae	0.19554016
218	0x3e5ea8c6	0.2174407
219	0x3d9052bf	0.070470326
220	0xbc21df73	-0.009879935
221	0x3e177051	0.14788939
222	0xbdbdf868	-0.09275895
223	0xbcd6fbea	-0.026243169
224	0xbbbd19c9	-0.005770896
225	0x3dd661c0	0.10467863
226	0xbd27dc09	-0.040981326
227	0xbcfc2988	-0.030781522
228	0x3bdd66af	0.0067566256
229	0xbd715af0	-0.058924615
230	0xbd10ef45	-0.035384435
231	0x3e28e175	0.16492255
232	0xbd8aaef7	-0.06771653
233	0x3dfd5f52	0.123716965
234	0xbdf4f5e1	-0.1196096
235	0xb8438191	-4.661229e-05
236	0x3b2066af	0.0024475267
237	0xbd90368d	-0.07041655
238	0xbd8d54e9	-0.06900961
239	0xbdaf42b1	-0.08557642
240	0xbd99daf9	-0.07512469
241	0x3dd68c2b	0.10475954
242	0xbe7f9cca	-0.24962154
243	0xbc3ecde6	-0.01164577
244	0x3cc9336f	0.024560658
245	0x3e167f35	0.14696963
246	0x3da1884d	0.078873254
247	0xbd5ee4c7	-0.054417398
248	0x3e694445	0.22779949
249	0x3e1f80b0	0.15576434
250	0x3df4f961	0.11961628
251	0xbd3d0fa6	-0.0461575
252	0x3d4caa87	0.049967315
253	0x3e2d47e9	0.16921963
254	0x3e0c864f	0.1372311
255	0x3d35b920	0.044366002

fc3.bias f4 [2]
0	0xbda20708	-0.07911497
1	0xbd49077a	-0.049079396
